…
I0427 00:48:26.350283  8496 solver.cpp:102] Creating training net from net file: train_val.prototxt
I0427 00:48:26.352067  8496 net.cpp:51] Initializing net from parameters: 
state {
  phase: TRAIN
  level: 0
  stage: ""
}
layer {
  name: "data"
  type: "ImageData"
  top: "data"
  top: "label"
  include {
    phase: TRAIN
  }
  transform_param {
    scale: 0.0078125
    mirror: true
    mean_value: 127.5
    mean_value: 127.5
    mean_value: 127.5
  }
  image_data_param {
    source: "/home/hzh/Recognition_face_train/dataset_path/casia_train_align_label.txt"
    batch_size: 128
    shuffle: true
  }
}
layer {
  name: "conv1"
  type: "Convolution"
  bottom: "data"
  top: "conv1"
  convolution_param {
    num_output: 64
    kernel_size: 3
    stride: 2
    weight_filler {
      type: "xavier"
    }
  }
}
layer {
  name: "relu_conv1"
  type: "ReLU"
  bottom: "conv1"
  top: "conv1"
}
layer {
  name: "pool1"
  type: "Pooling"
  bottom: "conv1"
  top: "pool1"
  pooling_param {
    pool: MAX
    kernel_size: 3
    stride: 2
  }
}
layer {
  name: "fire2/squeeze1x1"
  type: "Convolution"
  bottom: "pool1"
  top: "fire2/squeeze1x1"
  convolution_param {
    num_output: 16
    kernel_size: 1
    weight_filler {
      type: "xavier"
    }
  }
}
layer {
  name: "fire2/relu_squeeze1x1"
  type: "ReLU"
  bottom: "fire2/squeeze1x1"
  top: "fire2/squeeze1x1"
}
layer {
  name: "fire2/expand1x1"
  type: "Convolution"
  bottom: "fire2/squeeze1x1"
  top: "fire2/expand1x1"
  convolution_param {
    num_output: 64
    kernel_size: 1
    weight_filler {
      type: "xavier"
    }
  }
}
layer {
  name: "fire2/relu_expand1x1"
  type: "ReLU"
  bottom: "fire2/expand1x1"
  top: "fire2/expand1x1"
}
layer {
  name: "fire2/expand3x3"
  type: "Convolution"
  bottom: "fire2/squeeze1x1"
  top: "fire2/expand3x3"
  convolution_param {
    num_output: 64
    pad: 1
    kernel_size: 3
    weight_filler {
      type: "xavier"
    }
  }
}
layer {
  name: "fire2/relu_expand3x3"
  type: "ReLU"
  bottom: "fire2/expand3x3"
  top: "fire2/expand3x3"
}
layer {
  name: "fire2/concat"
  type: "Concat"
  bottom: "fire2/expand1x1"
  bottom: "fire2/expand3x3"
  top: "fire2/concat"
}
layer {
  name: "fire3/squeeze1x1"
  type: "Convolution"
  bottom: "fire2/concat"
  top: "fire3/squeeze1x1"
  convolution_param {
    num_output: 16
    kernel_size: 1
    weight_filler {
      type: "xavier"
    }
  }
}
layer {
  name: "fire3/relu_squeeze1x1"
  type: "ReLU"
  bottom: "fire3/squeeze1x1"
  top: "fire3/squeeze1x1"
}
layer {
  name: "fire3/expand1x1"
  type: "Convolution"
  bottom: "fire3/squeeze1x1"
  top: "fire3/expand1x1"
  convolution_param {
    num_output: 64
    kernel_size: 1
    weight_filler {
      type: "xavier"
    }
  }
}
layer {
  name: "fire3/relu_expand1x1"
  type: "ReLU"
  bottom: "fire3/expand1x1"
  top: "fire3/expand1x1"
}
layer {
  name: "fire3/expand3x3"
  type: "Convolution"
  bottom: "fire3/squeeze1x1"
  top: "fire3/expand3x3"
  convolution_param {
    num_output: 64
    pad: 1
    kernel_size: 3
    weight_filler {
      type: "xavier"
    }
  }
}
layer {
  name: "fire3/relu_expand3x3"
  type: "ReLU"
  bottom: "fire3/expand3x3"
  top: "fire3/expand3x3"
}
layer {
  name: "fire3/concat"
  type: "Concat"
  bottom: "fire3/expand1x1"
  bottom: "fire3/expand3x3"
  top: "fire3/concat"
}
layer {
  name: "pool3"
  type: "Pooling"
  bottom: "fire3/concat"
  top: "pool3"
  pooling_param {
    pool: MAX
    kernel_size: 3
    stride: 2
  }
}
layer {
  name: "fire4/squeeze1x1"
  type: "Convolution"
  bottom: "pool3"
  top: "fire4/squeeze1x1"
  convolution_param {
    num_output: 32
    kernel_size: 1
    weight_filler {
      type: "xavier"
    }
  }
}
layer {
  name: "fire4/relu_squeeze1x1"
  type: "ReLU"
  bottom: "fire4/squeeze1x1"
  top: "fire4/squeeze1x1"
}
layer {
  name: "fire4/expand1x1"
  type: "Convolution"
  bottom: "fire4/squeeze1x1"
  top: "fire4/expand1x1"
  convolution_param {
    num_output: 128
    kernel_size: 1
    weight_filler {
      type: "xavier"
    }
  }
}
layer {
  name: "fire4/relu_expand1x1"
  type: "ReLU"
  bottom: "fire4/expand1x1"
  top: "fire4/expand1x1"
}
layer {
  name: "fire4/expand3x3"
  type: "Convolution"
  bottom: "fire4/squeeze1x1"
  top: "fire4/expand3x3"
  convolution_param {
    num_output: 128
    pad: 1
    kernel_size: 3
    weight_filler {
      type: "xavier"
    }
  }
}
layer {
  name: "fire4/relu_expand3x3"
  type: "ReLU"
  bottom: "fire4/expand3x3"
  top: "fire4/expand3x3"
}
layer {
  name: "fire4/concat"
  type: "Concat"
  bottom: "fire4/expand1x1"
  bottom: "fire4/expand3x3"
  top: "fire4/concat"
}
layer {
  name: "fire5/squeeze1x1"
  type: "Convolution"
  bottom: "fire4/concat"
  top: "fire5/squeeze1x1"
  convolution_param {
    num_output: 32
    kernel_size: 1
    weight_filler {
      type: "xavier"
    }
  }
}
layer {
  name: "fire5/relu_squeeze1x1"
  type: "ReLU"
  bottom: "fire5/squeeze1x1"
  top: "fire5/squeeze1x1"
}
layer {
  name: "fire5/expand1x1"
  type: "Convolution"
  bottom: "fire5/squeeze1x1"
  top: "fire5/expand1x1"
  convolution_param {
    num_output: 128
    kernel_size: 1
    weight_filler {
      type: "xavier"
    }
  }
}
layer {
  name: "fire5/relu_expand1x1"
  type: "ReLU"
  bottom: "fire5/expand1x1"
  top: "fire5/expand1x1"
}
layer {
  name: "fire5/expand3x3"
  type: "Convolution"
  bottom: "fire5/squeeze1x1"
  top: "fire5/expand3x3"
  convolution_param {
    num_output: 128
    pad: 1
    kernel_size: 3
    weight_filler {
      type: "xavier"
    }
  }
}
layer {
  name: "fire5/relu_expand3x3"
  type: "ReLU"
  bottom: "fire5/expand3x3"
  top: "fire5/expand3x3"
}
layer {
  name: "fire5/concat"
  type: "Concat"
  bottom: "fire5/expand1x1"
  bottom: "fire5/expand3x3"
  top: "fire5/concat"
}
layer {
  name: "pool5"
  type: "Pooling"
  bottom: "fire5/concat"
  top: "pool5"
  pooling_param {
    pool: MAX
    kernel_size: 3
    stride: 2
  }
}
layer {
  name: "fire6/squeeze1x1"
  type: "Convolution"
  bottom: "pool5"
  top: "fire6/squeeze1x1"
  convolution_param {
    num_output: 48
    kernel_size: 1
    weight_filler {
      type: "xavier"
    }
  }
}
layer {
  name: "fire6/relu_squeeze1x1"
  type: "ReLU"
  bottom: "fire6/squeeze1x1"
  top: "fire6/squeeze1x1"
}
layer {
  name: "fire6/expand1x1"
  type: "Convolution"
  bottom: "fire6/squeeze1x1"
  top: "fire6/expand1x1"
  convolution_param {
    num_output: 192
    kernel_size: 1
    weight_filler {
      type: "xavier"
    }
  }
}
layer {
  name: "fire6/relu_expand1x1"
  type: "ReLU"
  bottom: "fire6/expand1x1"
  top: "fire6/expand1x1"
}
layer {
  name: "fire6/expand3x3"
  type: "Convolution"
  bottom: "fire6/squeeze1x1"
  top: "fire6/expand3x3"
  convolution_param {
    num_output: 192
    pad: 1
    kernel_size: 3
    weight_filler {
      type: "xavier"
    }
  }
}
layer {
  name: "fire6/relu_expand3x3"
  type: "ReLU"
  bottom: "fire6/expand3x3"
  top: "fire6/expand3x3"
}
layer {
  name: "fire6/concat"
  type: "Concat"
  bottom: "fire6/expand1x1"
  bottom: "fire6/expand3x3"
  top: "fire6/concat"
}
layer {
  name: "fire7/squeeze1x1"
  type: "Convolution"
  bottom: "fire6/concat"
  top: "fire7/squeeze1x1"
  convolution_param {
    num_output: 48
    kernel_size: 1
    weight_filler {
      type: "xavier"
    }
  }
}
layer {
  name: "fire7/relu_squeeze1x1"
  type: "ReLU"
  bottom: "fire7/squeeze1x1"
  top: "fire7/squeeze1x1"
}
layer {
  name: "fire7/expand1x1"
  type: "Convolution"
  bottom: "fire7/squeeze1x1"
  top: "fire7/expand1x1"
  convolution_param {
    num_output: 192
    kernel_size: 1
    weight_filler {
      type: "xavier"
    }
  }
}
layer {
  name: "fire7/relu_expand1x1"
  type: "ReLU"
  bottom: "fire7/expand1x1"
  top: "fire7/expand1x1"
}
layer {
  name: "fire7/expand3x3"
  type: "Convolution"
  bottom: "fire7/squeeze1x1"
  top: "fire7/expand3x3"
  convolution_param {
    num_output: 192
    pad: 1
    kernel_size: 3
    weight_filler {
      type: "xavier"
    }
  }
}
layer {
  name: "fire7/relu_expand3x3"
  type: "ReLU"
  bottom: "fire7/expand3x3"
  top: "fire7/expand3x3"
}
layer {
  name: "fire7/concat"
  type: "Concat"
  bottom: "fire7/expand1x1"
  bottom: "fire7/expand3x3"
  top: "fire7/concat"
}
layer {
  name: "fire8/squeeze1x1"
  type: "Convolution"
  bottom: "fire7/concat"
  top: "fire8/squeeze1x1"
  convolution_param {
    num_output: 64
    kernel_size: 1
    weight_filler {
      type: "xavier"
    }
  }
}
layer {
  name: "fire8/relu_squeeze1x1"
  type: "ReLU"
  bottom: "fire8/squeeze1x1"
  top: "fire8/squeeze1x1"
}
layer {
  name: "fire8/expand1x1"
  type: "Convolution"
  bottom: "fire8/squeeze1x1"
  top: "fire8/expand1x1"
  convolution_param {
    num_output: 256
    kernel_size: 1
    weight_filler {
      type: "xavier"
    }
  }
}
layer {
  name: "fire8/relu_expand1x1"
  type: "ReLU"
  bottom: "fire8/expand1x1"
  top: "fire8/expand1x1"
}
layer {
  name: "fire8/expand3x3"
  type: "Convolution"
  bottom: "fire8/squeeze1x1"
  top: "fire8/expand3x3"
  convolution_param {
    num_output: 256
    pad: 1
    kernel_size: 3
    weight_filler {
      type: "xavier"
    }
  }
}
layer {
  name: "fire8/relu_expand3x3"
  type: "ReLU"
  bottom: "fire8/expand3x3"
  top: "fire8/expand3x3"
}
layer {
  name: "fire8/concat"
  type: "Concat"
  bottom: "fire8/expand1x1"
  bottom: "fire8/expand3x3"
  top: "fire8/concat"
}
layer {
  name: "fire9/squeeze1x1"
  type: "Convolution"
  bottom: "fire8/concat"
  top: "fire9/squeeze1x1"
  convolution_param {
    num_output: 64
    kernel_size: 1
    weight_filler {
      type: "xavier"
    }
  }
}
layer {
  name: "fire9/relu_squeeze1x1"
  type: "ReLU"
  bottom: "fire9/squeeze1x1"
  top: "fire9/squeeze1x1"
}
layer {
  name: "fire9/expand1x1"
  type: "Convolution"
  bottom: "fire9/squeeze1x1"
  top: "fire9/expand1x1"
  convolution_param {
    num_output: 256
    kernel_size: 1
    weight_filler {
      type: "xavier"
    }
  }
}
layer {
  name: "fire9/relu_expand1x1"
  type: "ReLU"
  bottom: "fire9/expand1x1"
  top: "fire9/expand1x1"
}
layer {
  name: "fire9/expand3x3"
  type: "Convolution"
  bottom: "fire9/squeeze1x1"
  top: "fire9/expand3x3"
  convolution_param {
    num_output: 256
    pad: 1
    kernel_size: 3
    weight_filler {
      type: "xavier"
    }
  }
}
layer {
  name: "fire9/relu_expand3x3"
  type: "ReLU"
  bottom: "fire9/expand3x3"
  top: "fire9/expand3x3"
}
layer {
  name: "fire9/concat"
  type: "Concat"
  bottom: "fire9/expand1x1"
  bottom: "fire9/expand3x3"
  top: "fire9/concat"
}
layer {
  name: "drop9"
  type: "Dropout"
  bottom: "fire9/concat"
  top: "fire9/concat"
  dropout_param {
    dropout_ratio: 0.5
  }
}
layer {
  name: "pool_"
  type: "Pooling"
  bottom: "fire9/concat"
  top: "pool_"
  pooling_param {
    pool: AVE
    global_pooling: true
  }
}
layer {
  name: "fc"
  type: "InnerProduct"
  bottom: "pool_"
  top: "pool10"
  param {
    lr_mult: 1
    decay_mult: 1
  }
  param {
    lr_mult: 2
    decay_mult: 0
  }
  inner_product_param {
    num_output: 10575
    weight_filler {
      type: "xavier"
    }
    bias_filler {
      type: "constant"
      value: 0
    }
  }
}
layer {
  name: "loss"
  type: "SoftmaxWithLoss"
  bottom: "pool10"
  bottom: "label"
  top: "loss"
}
layer {
  name: "accuracy"
  type: "Accuracy"
  bottom: "pool10"
  bottom: "label"
  top: "accuracy"
}
layer {
  name: "accuracy_top5"
  type: "Accuracy"
  bottom: "pool10"
  bottom: "label"
  top: "accuracy_top5"
  accuracy_param {
    top_k: 5
  }
}
I0427 00:48:26.352499  8496 layer_factory.hpp:77] Creating layer data
I0427 00:48:26.352547  8496 net.cpp:84] Creating Layer data
I0427 00:48:26.352560  8496 net.cpp:380] data -> data
I0427 00:48:26.352587  8496 net.cpp:380] data -> label
I0427 00:48:26.352622  8496 image_data_layer.cpp:38] Opening file /home/hzh/Recognition_face_train/dataset_path/casia_train_align_label.txt
I0427 00:48:26.522266  8496 image_data_layer.cpp:53] Shuffling data
I0427 00:48:26.607105  8496 image_data_layer.cpp:63] A total of 450114 images.
I0427 00:48:26.609921  8496 image_data_layer.cpp:90] output data size: 128,3,112,96
I0427 00:48:26.655609  8496 net.cpp:122] Setting up data
I0427 00:48:26.655692  8496 net.cpp:129] Top shape: 128 3 112 96 (4128768)
I0427 00:48:26.655704  8496 net.cpp:129] Top shape: 128 (128)
I0427 00:48:26.655707  8496 net.cpp:137] Memory required for data: 16515584
I0427 00:48:26.655719  8496 layer_factory.hpp:77] Creating layer label_data_1_split
I0427 00:48:26.655735  8496 net.cpp:84] Creating Layer label_data_1_split
I0427 00:48:26.655742  8496 net.cpp:406] label_data_1_split <- label
I0427 00:48:26.655758  8496 net.cpp:380] label_data_1_split -> label_data_1_split_0
I0427 00:48:26.655771  8496 net.cpp:380] label_data_1_split -> label_data_1_split_1
I0427 00:48:26.655778  8496 net.cpp:380] label_data_1_split -> label_data_1_split_2
I0427 00:48:26.655910  8496 net.cpp:122] Setting up label_data_1_split
I0427 00:48:26.655920  8496 net.cpp:129] Top shape: 128 (128)
I0427 00:48:26.655925  8496 net.cpp:129] Top shape: 128 (128)
I0427 00:48:26.655930  8496 net.cpp:129] Top shape: 128 (128)
I0427 00:48:26.655935  8496 net.cpp:137] Memory required for data: 16517120
I0427 00:48:26.655939  8496 layer_factory.hpp:77] Creating layer conv1
I0427 00:48:26.655972  8496 net.cpp:84] Creating Layer conv1
I0427 00:48:26.655978  8496 net.cpp:406] conv1 <- data
I0427 00:48:26.655987  8496 net.cpp:380] conv1 -> conv1
I0427 00:48:27.438697  8496 net.cpp:122] Setting up conv1
I0427 00:48:27.438738  8496 net.cpp:129] Top shape: 128 64 55 47 (21176320)
I0427 00:48:27.438745  8496 net.cpp:137] Memory required for data: 101222400
I0427 00:48:27.438769  8496 layer_factory.hpp:77] Creating layer relu_conv1
I0427 00:48:27.438787  8496 net.cpp:84] Creating Layer relu_conv1
I0427 00:48:27.438794  8496 net.cpp:406] relu_conv1 <- conv1
I0427 00:48:27.438803  8496 net.cpp:367] relu_conv1 -> conv1 (in-place)
I0427 00:48:27.439373  8496 net.cpp:122] Setting up relu_conv1
I0427 00:48:27.439386  8496 net.cpp:129] Top shape: 128 64 55 47 (21176320)
I0427 00:48:27.439391  8496 net.cpp:137] Memory required for data: 185927680
I0427 00:48:27.439395  8496 layer_factory.hpp:77] Creating layer pool1
I0427 00:48:27.439415  8496 net.cpp:84] Creating Layer pool1
I0427 00:48:27.439420  8496 net.cpp:406] pool1 <- conv1
I0427 00:48:27.439427  8496 net.cpp:380] pool1 -> pool1
I0427 00:48:27.439496  8496 net.cpp:122] Setting up pool1
I0427 00:48:27.439505  8496 net.cpp:129] Top shape: 128 64 27 23 (5087232)
I0427 00:48:27.439509  8496 net.cpp:137] Memory required for data: 206276608
I0427 00:48:27.439513  8496 layer_factory.hpp:77] Creating layer fire2/squeeze1x1
I0427 00:48:27.439527  8496 net.cpp:84] Creating Layer fire2/squeeze1x1
I0427 00:48:27.439532  8496 net.cpp:406] fire2/squeeze1x1 <- pool1
I0427 00:48:27.439538  8496 net.cpp:380] fire2/squeeze1x1 -> fire2/squeeze1x1
I0427 00:48:27.443393  8496 net.cpp:122] Setting up fire2/squeeze1x1
I0427 00:48:27.443413  8496 net.cpp:129] Top shape: 128 16 27 23 (1271808)
I0427 00:48:27.443418  8496 net.cpp:137] Memory required for data: 211363840
I0427 00:48:27.443431  8496 layer_factory.hpp:77] Creating layer fire2/relu_squeeze1x1
I0427 00:48:27.443440  8496 net.cpp:84] Creating Layer fire2/relu_squeeze1x1
I0427 00:48:27.443445  8496 net.cpp:406] fire2/relu_squeeze1x1 <- fire2/squeeze1x1
I0427 00:48:27.443454  8496 net.cpp:367] fire2/relu_squeeze1x1 -> fire2/squeeze1x1 (in-place)
I0427 00:48:27.444022  8496 net.cpp:122] Setting up fire2/relu_squeeze1x1
I0427 00:48:27.444036  8496 net.cpp:129] Top shape: 128 16 27 23 (1271808)
I0427 00:48:27.444041  8496 net.cpp:137] Memory required for data: 216451072
I0427 00:48:27.444046  8496 layer_factory.hpp:77] Creating layer fire2/squeeze1x1_fire2/relu_squeeze1x1_0_split
I0427 00:48:27.444056  8496 net.cpp:84] Creating Layer fire2/squeeze1x1_fire2/relu_squeeze1x1_0_split
I0427 00:48:27.444066  8496 net.cpp:406] fire2/squeeze1x1_fire2/relu_squeeze1x1_0_split <- fire2/squeeze1x1
I0427 00:48:27.444097  8496 net.cpp:380] fire2/squeeze1x1_fire2/relu_squeeze1x1_0_split -> fire2/squeeze1x1_fire2/relu_squeeze1x1_0_split_0
I0427 00:48:27.444106  8496 net.cpp:380] fire2/squeeze1x1_fire2/relu_squeeze1x1_0_split -> fire2/squeeze1x1_fire2/relu_squeeze1x1_0_split_1
I0427 00:48:27.444159  8496 net.cpp:122] Setting up fire2/squeeze1x1_fire2/relu_squeeze1x1_0_split
I0427 00:48:27.444169  8496 net.cpp:129] Top shape: 128 16 27 23 (1271808)
I0427 00:48:27.444173  8496 net.cpp:129] Top shape: 128 16 27 23 (1271808)
I0427 00:48:27.444177  8496 net.cpp:137] Memory required for data: 226625536
I0427 00:48:27.444181  8496 layer_factory.hpp:77] Creating layer fire2/expand1x1
I0427 00:48:27.444193  8496 net.cpp:84] Creating Layer fire2/expand1x1
I0427 00:48:27.444198  8496 net.cpp:406] fire2/expand1x1 <- fire2/squeeze1x1_fire2/relu_squeeze1x1_0_split_0
I0427 00:48:27.444207  8496 net.cpp:380] fire2/expand1x1 -> fire2/expand1x1
I0427 00:48:27.446604  8496 net.cpp:122] Setting up fire2/expand1x1
I0427 00:48:27.446622  8496 net.cpp:129] Top shape: 128 64 27 23 (5087232)
I0427 00:48:27.446627  8496 net.cpp:137] Memory required for data: 246974464
I0427 00:48:27.446640  8496 layer_factory.hpp:77] Creating layer fire2/relu_expand1x1
I0427 00:48:27.446648  8496 net.cpp:84] Creating Layer fire2/relu_expand1x1
I0427 00:48:27.446655  8496 net.cpp:406] fire2/relu_expand1x1 <- fire2/expand1x1
I0427 00:48:27.446662  8496 net.cpp:367] fire2/relu_expand1x1 -> fire2/expand1x1 (in-place)
I0427 00:48:27.447602  8496 net.cpp:122] Setting up fire2/relu_expand1x1
I0427 00:48:27.447618  8496 net.cpp:129] Top shape: 128 64 27 23 (5087232)
I0427 00:48:27.447623  8496 net.cpp:137] Memory required for data: 267323392
I0427 00:48:27.447628  8496 layer_factory.hpp:77] Creating layer fire2/expand3x3
I0427 00:48:27.447643  8496 net.cpp:84] Creating Layer fire2/expand3x3
I0427 00:48:27.447648  8496 net.cpp:406] fire2/expand3x3 <- fire2/squeeze1x1_fire2/relu_squeeze1x1_0_split_1
I0427 00:48:27.447655  8496 net.cpp:380] fire2/expand3x3 -> fire2/expand3x3
I0427 00:48:27.451951  8496 net.cpp:122] Setting up fire2/expand3x3
I0427 00:48:27.451970  8496 net.cpp:129] Top shape: 128 64 27 23 (5087232)
I0427 00:48:27.451975  8496 net.cpp:137] Memory required for data: 287672320
I0427 00:48:27.451985  8496 layer_factory.hpp:77] Creating layer fire2/relu_expand3x3
I0427 00:48:27.451993  8496 net.cpp:84] Creating Layer fire2/relu_expand3x3
I0427 00:48:27.451998  8496 net.cpp:406] fire2/relu_expand3x3 <- fire2/expand3x3
I0427 00:48:27.452008  8496 net.cpp:367] fire2/relu_expand3x3 -> fire2/expand3x3 (in-place)
I0427 00:48:27.452575  8496 net.cpp:122] Setting up fire2/relu_expand3x3
I0427 00:48:27.452589  8496 net.cpp:129] Top shape: 128 64 27 23 (5087232)
I0427 00:48:27.452594  8496 net.cpp:137] Memory required for data: 308021248
I0427 00:48:27.452599  8496 layer_factory.hpp:77] Creating layer fire2/concat
I0427 00:48:27.452608  8496 net.cpp:84] Creating Layer fire2/concat
I0427 00:48:27.452613  8496 net.cpp:406] fire2/concat <- fire2/expand1x1
I0427 00:48:27.452620  8496 net.cpp:406] fire2/concat <- fire2/expand3x3
I0427 00:48:27.452628  8496 net.cpp:380] fire2/concat -> fire2/concat
I0427 00:48:27.452669  8496 net.cpp:122] Setting up fire2/concat
I0427 00:48:27.452677  8496 net.cpp:129] Top shape: 128 128 27 23 (10174464)
I0427 00:48:27.452682  8496 net.cpp:137] Memory required for data: 348719104
I0427 00:48:27.452692  8496 layer_factory.hpp:77] Creating layer fire3/squeeze1x1
I0427 00:48:27.452702  8496 net.cpp:84] Creating Layer fire3/squeeze1x1
I0427 00:48:27.452708  8496 net.cpp:406] fire3/squeeze1x1 <- fire2/concat
I0427 00:48:27.452714  8496 net.cpp:380] fire3/squeeze1x1 -> fire3/squeeze1x1
I0427 00:48:27.455175  8496 net.cpp:122] Setting up fire3/squeeze1x1
I0427 00:48:27.455193  8496 net.cpp:129] Top shape: 128 16 27 23 (1271808)
I0427 00:48:27.455199  8496 net.cpp:137] Memory required for data: 353806336
I0427 00:48:27.455217  8496 layer_factory.hpp:77] Creating layer fire3/relu_squeeze1x1
I0427 00:48:27.455226  8496 net.cpp:84] Creating Layer fire3/relu_squeeze1x1
I0427 00:48:27.455246  8496 net.cpp:406] fire3/relu_squeeze1x1 <- fire3/squeeze1x1
I0427 00:48:27.455253  8496 net.cpp:367] fire3/relu_squeeze1x1 -> fire3/squeeze1x1 (in-place)
I0427 00:48:27.455826  8496 net.cpp:122] Setting up fire3/relu_squeeze1x1
I0427 00:48:27.455839  8496 net.cpp:129] Top shape: 128 16 27 23 (1271808)
I0427 00:48:27.455843  8496 net.cpp:137] Memory required for data: 358893568
I0427 00:48:27.455848  8496 layer_factory.hpp:77] Creating layer fire3/squeeze1x1_fire3/relu_squeeze1x1_0_split
I0427 00:48:27.455855  8496 net.cpp:84] Creating Layer fire3/squeeze1x1_fire3/relu_squeeze1x1_0_split
I0427 00:48:27.455860  8496 net.cpp:406] fire3/squeeze1x1_fire3/relu_squeeze1x1_0_split <- fire3/squeeze1x1
I0427 00:48:27.455869  8496 net.cpp:380] fire3/squeeze1x1_fire3/relu_squeeze1x1_0_split -> fire3/squeeze1x1_fire3/relu_squeeze1x1_0_split_0
I0427 00:48:27.455878  8496 net.cpp:380] fire3/squeeze1x1_fire3/relu_squeeze1x1_0_split -> fire3/squeeze1x1_fire3/relu_squeeze1x1_0_split_1
I0427 00:48:27.455934  8496 net.cpp:122] Setting up fire3/squeeze1x1_fire3/relu_squeeze1x1_0_split
I0427 00:48:27.455940  8496 net.cpp:129] Top shape: 128 16 27 23 (1271808)
I0427 00:48:27.455946  8496 net.cpp:129] Top shape: 128 16 27 23 (1271808)
I0427 00:48:27.455950  8496 net.cpp:137] Memory required for data: 369068032
I0427 00:48:27.455955  8496 layer_factory.hpp:77] Creating layer fire3/expand1x1
I0427 00:48:27.455968  8496 net.cpp:84] Creating Layer fire3/expand1x1
I0427 00:48:27.455973  8496 net.cpp:406] fire3/expand1x1 <- fire3/squeeze1x1_fire3/relu_squeeze1x1_0_split_0
I0427 00:48:27.455981  8496 net.cpp:380] fire3/expand1x1 -> fire3/expand1x1
I0427 00:48:27.458396  8496 net.cpp:122] Setting up fire3/expand1x1
I0427 00:48:27.458415  8496 net.cpp:129] Top shape: 128 64 27 23 (5087232)
I0427 00:48:27.458420  8496 net.cpp:137] Memory required for data: 389416960
I0427 00:48:27.458429  8496 layer_factory.hpp:77] Creating layer fire3/relu_expand1x1
I0427 00:48:27.458437  8496 net.cpp:84] Creating Layer fire3/relu_expand1x1
I0427 00:48:27.458442  8496 net.cpp:406] fire3/relu_expand1x1 <- fire3/expand1x1
I0427 00:48:27.458449  8496 net.cpp:367] fire3/relu_expand1x1 -> fire3/expand1x1 (in-place)
I0427 00:48:27.459393  8496 net.cpp:122] Setting up fire3/relu_expand1x1
I0427 00:48:27.459409  8496 net.cpp:129] Top shape: 128 64 27 23 (5087232)
I0427 00:48:27.459414  8496 net.cpp:137] Memory required for data: 409765888
I0427 00:48:27.459419  8496 layer_factory.hpp:77] Creating layer fire3/expand3x3
I0427 00:48:27.459431  8496 net.cpp:84] Creating Layer fire3/expand3x3
I0427 00:48:27.459436  8496 net.cpp:406] fire3/expand3x3 <- fire3/squeeze1x1_fire3/relu_squeeze1x1_0_split_1
I0427 00:48:27.459444  8496 net.cpp:380] fire3/expand3x3 -> fire3/expand3x3
I0427 00:48:27.461964  8496 net.cpp:122] Setting up fire3/expand3x3
I0427 00:48:27.461982  8496 net.cpp:129] Top shape: 128 64 27 23 (5087232)
I0427 00:48:27.461987  8496 net.cpp:137] Memory required for data: 430114816
I0427 00:48:27.461995  8496 layer_factory.hpp:77] Creating layer fire3/relu_expand3x3
I0427 00:48:27.462003  8496 net.cpp:84] Creating Layer fire3/relu_expand3x3
I0427 00:48:27.462009  8496 net.cpp:406] fire3/relu_expand3x3 <- fire3/expand3x3
I0427 00:48:27.462019  8496 net.cpp:367] fire3/relu_expand3x3 -> fire3/expand3x3 (in-place)
I0427 00:48:27.462587  8496 net.cpp:122] Setting up fire3/relu_expand3x3
I0427 00:48:27.462600  8496 net.cpp:129] Top shape: 128 64 27 23 (5087232)
I0427 00:48:27.462605  8496 net.cpp:137] Memory required for data: 450463744
I0427 00:48:27.462610  8496 layer_factory.hpp:77] Creating layer fire3/concat
I0427 00:48:27.462616  8496 net.cpp:84] Creating Layer fire3/concat
I0427 00:48:27.462621  8496 net.cpp:406] fire3/concat <- fire3/expand1x1
I0427 00:48:27.462627  8496 net.cpp:406] fire3/concat <- fire3/expand3x3
I0427 00:48:27.462635  8496 net.cpp:380] fire3/concat -> fire3/concat
I0427 00:48:27.462676  8496 net.cpp:122] Setting up fire3/concat
I0427 00:48:27.462683  8496 net.cpp:129] Top shape: 128 128 27 23 (10174464)
I0427 00:48:27.462708  8496 net.cpp:137] Memory required for data: 491161600
I0427 00:48:27.462713  8496 layer_factory.hpp:77] Creating layer pool3
I0427 00:48:27.462723  8496 net.cpp:84] Creating Layer pool3
I0427 00:48:27.462728  8496 net.cpp:406] pool3 <- fire3/concat
I0427 00:48:27.462734  8496 net.cpp:380] pool3 -> pool3
I0427 00:48:27.462787  8496 net.cpp:122] Setting up pool3
I0427 00:48:27.462795  8496 net.cpp:129] Top shape: 128 128 13 11 (2342912)
I0427 00:48:27.462800  8496 net.cpp:137] Memory required for data: 500533248
I0427 00:48:27.462803  8496 layer_factory.hpp:77] Creating layer fire4/squeeze1x1
I0427 00:48:27.462813  8496 net.cpp:84] Creating Layer fire4/squeeze1x1
I0427 00:48:27.462818  8496 net.cpp:406] fire4/squeeze1x1 <- pool3
I0427 00:48:27.462824  8496 net.cpp:380] fire4/squeeze1x1 -> fire4/squeeze1x1
I0427 00:48:27.465277  8496 net.cpp:122] Setting up fire4/squeeze1x1
I0427 00:48:27.465296  8496 net.cpp:129] Top shape: 128 32 13 11 (585728)
I0427 00:48:27.465301  8496 net.cpp:137] Memory required for data: 502876160
I0427 00:48:27.465309  8496 layer_factory.hpp:77] Creating layer fire4/relu_squeeze1x1
I0427 00:48:27.465317  8496 net.cpp:84] Creating Layer fire4/relu_squeeze1x1
I0427 00:48:27.465322  8496 net.cpp:406] fire4/relu_squeeze1x1 <- fire4/squeeze1x1
I0427 00:48:27.465332  8496 net.cpp:367] fire4/relu_squeeze1x1 -> fire4/squeeze1x1 (in-place)
I0427 00:48:27.465896  8496 net.cpp:122] Setting up fire4/relu_squeeze1x1
I0427 00:48:27.465910  8496 net.cpp:129] Top shape: 128 32 13 11 (585728)
I0427 00:48:27.465914  8496 net.cpp:137] Memory required for data: 505219072
I0427 00:48:27.465919  8496 layer_factory.hpp:77] Creating layer fire4/squeeze1x1_fire4/relu_squeeze1x1_0_split
I0427 00:48:27.465931  8496 net.cpp:84] Creating Layer fire4/squeeze1x1_fire4/relu_squeeze1x1_0_split
I0427 00:48:27.465936  8496 net.cpp:406] fire4/squeeze1x1_fire4/relu_squeeze1x1_0_split <- fire4/squeeze1x1
I0427 00:48:27.465943  8496 net.cpp:380] fire4/squeeze1x1_fire4/relu_squeeze1x1_0_split -> fire4/squeeze1x1_fire4/relu_squeeze1x1_0_split_0
I0427 00:48:27.465951  8496 net.cpp:380] fire4/squeeze1x1_fire4/relu_squeeze1x1_0_split -> fire4/squeeze1x1_fire4/relu_squeeze1x1_0_split_1
I0427 00:48:27.466007  8496 net.cpp:122] Setting up fire4/squeeze1x1_fire4/relu_squeeze1x1_0_split
I0427 00:48:27.466015  8496 net.cpp:129] Top shape: 128 32 13 11 (585728)
I0427 00:48:27.466020  8496 net.cpp:129] Top shape: 128 32 13 11 (585728)
I0427 00:48:27.466024  8496 net.cpp:137] Memory required for data: 509904896
I0427 00:48:27.466028  8496 layer_factory.hpp:77] Creating layer fire4/expand1x1
I0427 00:48:27.466038  8496 net.cpp:84] Creating Layer fire4/expand1x1
I0427 00:48:27.466043  8496 net.cpp:406] fire4/expand1x1 <- fire4/squeeze1x1_fire4/relu_squeeze1x1_0_split_0
I0427 00:48:27.466049  8496 net.cpp:380] fire4/expand1x1 -> fire4/expand1x1
I0427 00:48:27.468490  8496 net.cpp:122] Setting up fire4/expand1x1
I0427 00:48:27.468510  8496 net.cpp:129] Top shape: 128 128 13 11 (2342912)
I0427 00:48:27.468515  8496 net.cpp:137] Memory required for data: 519276544
I0427 00:48:27.468528  8496 layer_factory.hpp:77] Creating layer fire4/relu_expand1x1
I0427 00:48:27.468536  8496 net.cpp:84] Creating Layer fire4/relu_expand1x1
I0427 00:48:27.468541  8496 net.cpp:406] fire4/relu_expand1x1 <- fire4/expand1x1
I0427 00:48:27.468550  8496 net.cpp:367] fire4/relu_expand1x1 -> fire4/expand1x1 (in-place)
I0427 00:48:27.469120  8496 net.cpp:122] Setting up fire4/relu_expand1x1
I0427 00:48:27.469135  8496 net.cpp:129] Top shape: 128 128 13 11 (2342912)
I0427 00:48:27.469139  8496 net.cpp:137] Memory required for data: 528648192
I0427 00:48:27.469144  8496 layer_factory.hpp:77] Creating layer fire4/expand3x3
I0427 00:48:27.469154  8496 net.cpp:84] Creating Layer fire4/expand3x3
I0427 00:48:27.469159  8496 net.cpp:406] fire4/expand3x3 <- fire4/squeeze1x1_fire4/relu_squeeze1x1_0_split_1
I0427 00:48:27.469167  8496 net.cpp:380] fire4/expand3x3 -> fire4/expand3x3
I0427 00:48:27.473253  8496 net.cpp:122] Setting up fire4/expand3x3
I0427 00:48:27.473289  8496 net.cpp:129] Top shape: 128 128 13 11 (2342912)
I0427 00:48:27.473294  8496 net.cpp:137] Memory required for data: 538019840
I0427 00:48:27.473302  8496 layer_factory.hpp:77] Creating layer fire4/relu_expand3x3
I0427 00:48:27.473314  8496 net.cpp:84] Creating Layer fire4/relu_expand3x3
I0427 00:48:27.473320  8496 net.cpp:406] fire4/relu_expand3x3 <- fire4/expand3x3
I0427 00:48:27.473326  8496 net.cpp:367] fire4/relu_expand3x3 -> fire4/expand3x3 (in-place)
I0427 00:48:27.474269  8496 net.cpp:122] Setting up fire4/relu_expand3x3
I0427 00:48:27.474287  8496 net.cpp:129] Top shape: 128 128 13 11 (2342912)
I0427 00:48:27.474292  8496 net.cpp:137] Memory required for data: 547391488
I0427 00:48:27.474297  8496 layer_factory.hpp:77] Creating layer fire4/concat
I0427 00:48:27.474308  8496 net.cpp:84] Creating Layer fire4/concat
I0427 00:48:27.474313  8496 net.cpp:406] fire4/concat <- fire4/expand1x1
I0427 00:48:27.474318  8496 net.cpp:406] fire4/concat <- fire4/expand3x3
I0427 00:48:27.474325  8496 net.cpp:380] fire4/concat -> fire4/concat
I0427 00:48:27.474364  8496 net.cpp:122] Setting up fire4/concat
I0427 00:48:27.474372  8496 net.cpp:129] Top shape: 128 256 13 11 (4685824)
I0427 00:48:27.474376  8496 net.cpp:137] Memory required for data: 566134784
I0427 00:48:27.474380  8496 layer_factory.hpp:77] Creating layer fire5/squeeze1x1
I0427 00:48:27.474391  8496 net.cpp:84] Creating Layer fire5/squeeze1x1
I0427 00:48:27.474396  8496 net.cpp:406] fire5/squeeze1x1 <- fire4/concat
I0427 00:48:27.474404  8496 net.cpp:380] fire5/squeeze1x1 -> fire5/squeeze1x1
I0427 00:48:27.476907  8496 net.cpp:122] Setting up fire5/squeeze1x1
I0427 00:48:27.476924  8496 net.cpp:129] Top shape: 128 32 13 11 (585728)
I0427 00:48:27.476929  8496 net.cpp:137] Memory required for data: 568477696
I0427 00:48:27.476938  8496 layer_factory.hpp:77] Creating layer fire5/relu_squeeze1x1
I0427 00:48:27.476948  8496 net.cpp:84] Creating Layer fire5/relu_squeeze1x1
I0427 00:48:27.476953  8496 net.cpp:406] fire5/relu_squeeze1x1 <- fire5/squeeze1x1
I0427 00:48:27.476960  8496 net.cpp:367] fire5/relu_squeeze1x1 -> fire5/squeeze1x1 (in-place)
I0427 00:48:27.477521  8496 net.cpp:122] Setting up fire5/relu_squeeze1x1
I0427 00:48:27.477535  8496 net.cpp:129] Top shape: 128 32 13 11 (585728)
I0427 00:48:27.477538  8496 net.cpp:137] Memory required for data: 570820608
I0427 00:48:27.477542  8496 layer_factory.hpp:77] Creating layer fire5/squeeze1x1_fire5/relu_squeeze1x1_0_split
I0427 00:48:27.477555  8496 net.cpp:84] Creating Layer fire5/squeeze1x1_fire5/relu_squeeze1x1_0_split
I0427 00:48:27.477560  8496 net.cpp:406] fire5/squeeze1x1_fire5/relu_squeeze1x1_0_split <- fire5/squeeze1x1
I0427 00:48:27.477566  8496 net.cpp:380] fire5/squeeze1x1_fire5/relu_squeeze1x1_0_split -> fire5/squeeze1x1_fire5/relu_squeeze1x1_0_split_0
I0427 00:48:27.477574  8496 net.cpp:380] fire5/squeeze1x1_fire5/relu_squeeze1x1_0_split -> fire5/squeeze1x1_fire5/relu_squeeze1x1_0_split_1
I0427 00:48:27.477630  8496 net.cpp:122] Setting up fire5/squeeze1x1_fire5/relu_squeeze1x1_0_split
I0427 00:48:27.477638  8496 net.cpp:129] Top shape: 128 32 13 11 (585728)
I0427 00:48:27.477643  8496 net.cpp:129] Top shape: 128 32 13 11 (585728)
I0427 00:48:27.477648  8496 net.cpp:137] Memory required for data: 575506432
I0427 00:48:27.477651  8496 layer_factory.hpp:77] Creating layer fire5/expand1x1
I0427 00:48:27.477661  8496 net.cpp:84] Creating Layer fire5/expand1x1
I0427 00:48:27.477666  8496 net.cpp:406] fire5/expand1x1 <- fire5/squeeze1x1_fire5/relu_squeeze1x1_0_split_0
I0427 00:48:27.477674  8496 net.cpp:380] fire5/expand1x1 -> fire5/expand1x1
I0427 00:48:27.480139  8496 net.cpp:122] Setting up fire5/expand1x1
I0427 00:48:27.480157  8496 net.cpp:129] Top shape: 128 128 13 11 (2342912)
I0427 00:48:27.480163  8496 net.cpp:137] Memory required for data: 584878080
I0427 00:48:27.480171  8496 layer_factory.hpp:77] Creating layer fire5/relu_expand1x1
I0427 00:48:27.480180  8496 net.cpp:84] Creating Layer fire5/relu_expand1x1
I0427 00:48:27.480188  8496 net.cpp:406] fire5/relu_expand1x1 <- fire5/expand1x1
I0427 00:48:27.480211  8496 net.cpp:367] fire5/relu_expand1x1 -> fire5/expand1x1 (in-place)
I0427 00:48:27.480778  8496 net.cpp:122] Setting up fire5/relu_expand1x1
I0427 00:48:27.480792  8496 net.cpp:129] Top shape: 128 128 13 11 (2342912)
I0427 00:48:27.480795  8496 net.cpp:137] Memory required for data: 594249728
I0427 00:48:27.480800  8496 layer_factory.hpp:77] Creating layer fire5/expand3x3
I0427 00:48:27.480811  8496 net.cpp:84] Creating Layer fire5/expand3x3
I0427 00:48:27.480818  8496 net.cpp:406] fire5/expand3x3 <- fire5/squeeze1x1_fire5/relu_squeeze1x1_0_split_1
I0427 00:48:27.480824  8496 net.cpp:380] fire5/expand3x3 -> fire5/expand3x3
I0427 00:48:27.483902  8496 net.cpp:122] Setting up fire5/expand3x3
I0427 00:48:27.483920  8496 net.cpp:129] Top shape: 128 128 13 11 (2342912)
I0427 00:48:27.483925  8496 net.cpp:137] Memory required for data: 603621376
I0427 00:48:27.483942  8496 layer_factory.hpp:77] Creating layer fire5/relu_expand3x3
I0427 00:48:27.483950  8496 net.cpp:84] Creating Layer fire5/relu_expand3x3
I0427 00:48:27.483955  8496 net.cpp:406] fire5/relu_expand3x3 <- fire5/expand3x3
I0427 00:48:27.483964  8496 net.cpp:367] fire5/relu_expand3x3 -> fire5/expand3x3 (in-place)
I0427 00:48:27.484931  8496 net.cpp:122] Setting up fire5/relu_expand3x3
I0427 00:48:27.484948  8496 net.cpp:129] Top shape: 128 128 13 11 (2342912)
I0427 00:48:27.484953  8496 net.cpp:137] Memory required for data: 612993024
I0427 00:48:27.484958  8496 layer_factory.hpp:77] Creating layer fire5/concat
I0427 00:48:27.484966  8496 net.cpp:84] Creating Layer fire5/concat
I0427 00:48:27.484972  8496 net.cpp:406] fire5/concat <- fire5/expand1x1
I0427 00:48:27.484977  8496 net.cpp:406] fire5/concat <- fire5/expand3x3
I0427 00:48:27.484987  8496 net.cpp:380] fire5/concat -> fire5/concat
I0427 00:48:27.485024  8496 net.cpp:122] Setting up fire5/concat
I0427 00:48:27.485038  8496 net.cpp:129] Top shape: 128 256 13 11 (4685824)
I0427 00:48:27.485043  8496 net.cpp:137] Memory required for data: 631736320
I0427 00:48:27.485046  8496 layer_factory.hpp:77] Creating layer pool5
I0427 00:48:27.485054  8496 net.cpp:84] Creating Layer pool5
I0427 00:48:27.485059  8496 net.cpp:406] pool5 <- fire5/concat
I0427 00:48:27.485064  8496 net.cpp:380] pool5 -> pool5
I0427 00:48:27.485119  8496 net.cpp:122] Setting up pool5
I0427 00:48:27.485127  8496 net.cpp:129] Top shape: 128 256 6 5 (983040)
I0427 00:48:27.485131  8496 net.cpp:137] Memory required for data: 635668480
I0427 00:48:27.485136  8496 layer_factory.hpp:77] Creating layer fire6/squeeze1x1
I0427 00:48:27.485148  8496 net.cpp:84] Creating Layer fire6/squeeze1x1
I0427 00:48:27.485152  8496 net.cpp:406] fire6/squeeze1x1 <- pool5
I0427 00:48:27.485159  8496 net.cpp:380] fire6/squeeze1x1 -> fire6/squeeze1x1
I0427 00:48:27.487706  8496 net.cpp:122] Setting up fire6/squeeze1x1
I0427 00:48:27.487726  8496 net.cpp:129] Top shape: 128 48 6 5 (184320)
I0427 00:48:27.487731  8496 net.cpp:137] Memory required for data: 636405760
I0427 00:48:27.487740  8496 layer_factory.hpp:77] Creating layer fire6/relu_squeeze1x1
I0427 00:48:27.487748  8496 net.cpp:84] Creating Layer fire6/relu_squeeze1x1
I0427 00:48:27.487753  8496 net.cpp:406] fire6/relu_squeeze1x1 <- fire6/squeeze1x1
I0427 00:48:27.487761  8496 net.cpp:367] fire6/relu_squeeze1x1 -> fire6/squeeze1x1 (in-place)
I0427 00:48:27.488325  8496 net.cpp:122] Setting up fire6/relu_squeeze1x1
I0427 00:48:27.488338  8496 net.cpp:129] Top shape: 128 48 6 5 (184320)
I0427 00:48:27.488343  8496 net.cpp:137] Memory required for data: 637143040
I0427 00:48:27.488348  8496 layer_factory.hpp:77] Creating layer fire6/squeeze1x1_fire6/relu_squeeze1x1_0_split
I0427 00:48:27.488354  8496 net.cpp:84] Creating Layer fire6/squeeze1x1_fire6/relu_squeeze1x1_0_split
I0427 00:48:27.488358  8496 net.cpp:406] fire6/squeeze1x1_fire6/relu_squeeze1x1_0_split <- fire6/squeeze1x1
I0427 00:48:27.488365  8496 net.cpp:380] fire6/squeeze1x1_fire6/relu_squeeze1x1_0_split -> fire6/squeeze1x1_fire6/relu_squeeze1x1_0_split_0
I0427 00:48:27.488379  8496 net.cpp:380] fire6/squeeze1x1_fire6/relu_squeeze1x1_0_split -> fire6/squeeze1x1_fire6/relu_squeeze1x1_0_split_1
I0427 00:48:27.488451  8496 net.cpp:122] Setting up fire6/squeeze1x1_fire6/relu_squeeze1x1_0_split
I0427 00:48:27.488459  8496 net.cpp:129] Top shape: 128 48 6 5 (184320)
I0427 00:48:27.488464  8496 net.cpp:129] Top shape: 128 48 6 5 (184320)
I0427 00:48:27.488468  8496 net.cpp:137] Memory required for data: 638617600
I0427 00:48:27.488473  8496 layer_factory.hpp:77] Creating layer fire6/expand1x1
I0427 00:48:27.488483  8496 net.cpp:84] Creating Layer fire6/expand1x1
I0427 00:48:27.488488  8496 net.cpp:406] fire6/expand1x1 <- fire6/squeeze1x1_fire6/relu_squeeze1x1_0_split_0
I0427 00:48:27.488497  8496 net.cpp:380] fire6/expand1x1 -> fire6/expand1x1
I0427 00:48:27.491477  8496 net.cpp:122] Setting up fire6/expand1x1
I0427 00:48:27.491497  8496 net.cpp:129] Top shape: 128 192 6 5 (737280)
I0427 00:48:27.491502  8496 net.cpp:137] Memory required for data: 641566720
I0427 00:48:27.491510  8496 layer_factory.hpp:77] Creating layer fire6/relu_expand1x1
I0427 00:48:27.491520  8496 net.cpp:84] Creating Layer fire6/relu_expand1x1
I0427 00:48:27.491526  8496 net.cpp:406] fire6/relu_expand1x1 <- fire6/expand1x1
I0427 00:48:27.491533  8496 net.cpp:367] fire6/relu_expand1x1 -> fire6/expand1x1 (in-place)
I0427 00:48:27.492117  8496 net.cpp:122] Setting up fire6/relu_expand1x1
I0427 00:48:27.492130  8496 net.cpp:129] Top shape: 128 192 6 5 (737280)
I0427 00:48:27.492136  8496 net.cpp:137] Memory required for data: 644515840
I0427 00:48:27.492139  8496 layer_factory.hpp:77] Creating layer fire6/expand3x3
I0427 00:48:27.492152  8496 net.cpp:84] Creating Layer fire6/expand3x3
I0427 00:48:27.492158  8496 net.cpp:406] fire6/expand3x3 <- fire6/squeeze1x1_fire6/relu_squeeze1x1_0_split_1
I0427 00:48:27.492166  8496 net.cpp:380] fire6/expand3x3 -> fire6/expand3x3
I0427 00:48:27.496980  8496 net.cpp:122] Setting up fire6/expand3x3
I0427 00:48:27.496999  8496 net.cpp:129] Top shape: 128 192 6 5 (737280)
I0427 00:48:27.497004  8496 net.cpp:137] Memory required for data: 647464960
I0427 00:48:27.497014  8496 layer_factory.hpp:77] Creating layer fire6/relu_expand3x3
I0427 00:48:27.497021  8496 net.cpp:84] Creating Layer fire6/relu_expand3x3
I0427 00:48:27.497027  8496 net.cpp:406] fire6/relu_expand3x3 <- fire6/expand3x3
I0427 00:48:27.497036  8496 net.cpp:367] fire6/relu_expand3x3 -> fire6/expand3x3 (in-place)
I0427 00:48:27.497979  8496 net.cpp:122] Setting up fire6/relu_expand3x3
I0427 00:48:27.497997  8496 net.cpp:129] Top shape: 128 192 6 5 (737280)
I0427 00:48:27.498001  8496 net.cpp:137] Memory required for data: 650414080
I0427 00:48:27.498005  8496 layer_factory.hpp:77] Creating layer fire6/concat
I0427 00:48:27.498015  8496 net.cpp:84] Creating Layer fire6/concat
I0427 00:48:27.498021  8496 net.cpp:406] fire6/concat <- fire6/expand1x1
I0427 00:48:27.498028  8496 net.cpp:406] fire6/concat <- fire6/expand3x3
I0427 00:48:27.498034  8496 net.cpp:380] fire6/concat -> fire6/concat
I0427 00:48:27.498072  8496 net.cpp:122] Setting up fire6/concat
I0427 00:48:27.498082  8496 net.cpp:129] Top shape: 128 384 6 5 (1474560)
I0427 00:48:27.498087  8496 net.cpp:137] Memory required for data: 656312320
I0427 00:48:27.498091  8496 layer_factory.hpp:77] Creating layer fire7/squeeze1x1
I0427 00:48:27.498101  8496 net.cpp:84] Creating Layer fire7/squeeze1x1
I0427 00:48:27.498106  8496 net.cpp:406] fire7/squeeze1x1 <- fire6/concat
I0427 00:48:27.498113  8496 net.cpp:380] fire7/squeeze1x1 -> fire7/squeeze1x1
I0427 00:48:27.500737  8496 net.cpp:122] Setting up fire7/squeeze1x1
I0427 00:48:27.500756  8496 net.cpp:129] Top shape: 128 48 6 5 (184320)
I0427 00:48:27.500761  8496 net.cpp:137] Memory required for data: 657049600
I0427 00:48:27.500777  8496 layer_factory.hpp:77] Creating layer fire7/relu_squeeze1x1
I0427 00:48:27.500787  8496 net.cpp:84] Creating Layer fire7/relu_squeeze1x1
I0427 00:48:27.500792  8496 net.cpp:406] fire7/relu_squeeze1x1 <- fire7/squeeze1x1
I0427 00:48:27.500802  8496 net.cpp:367] fire7/relu_squeeze1x1 -> fire7/squeeze1x1 (in-place)
I0427 00:48:27.501368  8496 net.cpp:122] Setting up fire7/relu_squeeze1x1
I0427 00:48:27.501396  8496 net.cpp:129] Top shape: 128 48 6 5 (184320)
I0427 00:48:27.501401  8496 net.cpp:137] Memory required for data: 657786880
I0427 00:48:27.501406  8496 layer_factory.hpp:77] Creating layer fire7/squeeze1x1_fire7/relu_squeeze1x1_0_split
I0427 00:48:27.501413  8496 net.cpp:84] Creating Layer fire7/squeeze1x1_fire7/relu_squeeze1x1_0_split
I0427 00:48:27.501417  8496 net.cpp:406] fire7/squeeze1x1_fire7/relu_squeeze1x1_0_split <- fire7/squeeze1x1
I0427 00:48:27.501426  8496 net.cpp:380] fire7/squeeze1x1_fire7/relu_squeeze1x1_0_split -> fire7/squeeze1x1_fire7/relu_squeeze1x1_0_split_0
I0427 00:48:27.501435  8496 net.cpp:380] fire7/squeeze1x1_fire7/relu_squeeze1x1_0_split -> fire7/squeeze1x1_fire7/relu_squeeze1x1_0_split_1
I0427 00:48:27.501492  8496 net.cpp:122] Setting up fire7/squeeze1x1_fire7/relu_squeeze1x1_0_split
I0427 00:48:27.501500  8496 net.cpp:129] Top shape: 128 48 6 5 (184320)
I0427 00:48:27.501508  8496 net.cpp:129] Top shape: 128 48 6 5 (184320)
I0427 00:48:27.501511  8496 net.cpp:137] Memory required for data: 659261440
I0427 00:48:27.501516  8496 layer_factory.hpp:77] Creating layer fire7/expand1x1
I0427 00:48:27.501524  8496 net.cpp:84] Creating Layer fire7/expand1x1
I0427 00:48:27.501529  8496 net.cpp:406] fire7/expand1x1 <- fire7/squeeze1x1_fire7/relu_squeeze1x1_0_split_0
I0427 00:48:27.501538  8496 net.cpp:380] fire7/expand1x1 -> fire7/expand1x1
I0427 00:48:27.504072  8496 net.cpp:122] Setting up fire7/expand1x1
I0427 00:48:27.504091  8496 net.cpp:129] Top shape: 128 192 6 5 (737280)
I0427 00:48:27.504096  8496 net.cpp:137] Memory required for data: 662210560
I0427 00:48:27.504104  8496 layer_factory.hpp:77] Creating layer fire7/relu_expand1x1
I0427 00:48:27.504114  8496 net.cpp:84] Creating Layer fire7/relu_expand1x1
I0427 00:48:27.504119  8496 net.cpp:406] fire7/relu_expand1x1 <- fire7/expand1x1
I0427 00:48:27.504127  8496 net.cpp:367] fire7/relu_expand1x1 -> fire7/expand1x1 (in-place)
I0427 00:48:27.504700  8496 net.cpp:122] Setting up fire7/relu_expand1x1
I0427 00:48:27.504714  8496 net.cpp:129] Top shape: 128 192 6 5 (737280)
I0427 00:48:27.504717  8496 net.cpp:137] Memory required for data: 665159680
I0427 00:48:27.504722  8496 layer_factory.hpp:77] Creating layer fire7/expand3x3
I0427 00:48:27.504736  8496 net.cpp:84] Creating Layer fire7/expand3x3
I0427 00:48:27.504741  8496 net.cpp:406] fire7/expand3x3 <- fire7/squeeze1x1_fire7/relu_squeeze1x1_0_split_1
I0427 00:48:27.504750  8496 net.cpp:380] fire7/expand3x3 -> fire7/expand3x3
I0427 00:48:27.508160  8496 net.cpp:122] Setting up fire7/expand3x3
I0427 00:48:27.508179  8496 net.cpp:129] Top shape: 128 192 6 5 (737280)
I0427 00:48:27.508184  8496 net.cpp:137] Memory required for data: 668108800
I0427 00:48:27.508193  8496 layer_factory.hpp:77] Creating layer fire7/relu_expand3x3
I0427 00:48:27.508204  8496 net.cpp:84] Creating Layer fire7/relu_expand3x3
I0427 00:48:27.508209  8496 net.cpp:406] fire7/relu_expand3x3 <- fire7/expand3x3
I0427 00:48:27.508216  8496 net.cpp:367] fire7/relu_expand3x3 -> fire7/expand3x3 (in-place)
I0427 00:48:27.508801  8496 net.cpp:122] Setting up fire7/relu_expand3x3
I0427 00:48:27.508815  8496 net.cpp:129] Top shape: 128 192 6 5 (737280)
I0427 00:48:27.508819  8496 net.cpp:137] Memory required for data: 671057920
I0427 00:48:27.508823  8496 layer_factory.hpp:77] Creating layer fire7/concat
I0427 00:48:27.508833  8496 net.cpp:84] Creating Layer fire7/concat
I0427 00:48:27.508838  8496 net.cpp:406] fire7/concat <- fire7/expand1x1
I0427 00:48:27.508844  8496 net.cpp:406] fire7/concat <- fire7/expand3x3
I0427 00:48:27.508852  8496 net.cpp:380] fire7/concat -> fire7/concat
I0427 00:48:27.508893  8496 net.cpp:122] Setting up fire7/concat
I0427 00:48:27.508900  8496 net.cpp:129] Top shape: 128 384 6 5 (1474560)
I0427 00:48:27.508904  8496 net.cpp:137] Memory required for data: 676956160
I0427 00:48:27.508908  8496 layer_factory.hpp:77] Creating layer fire8/squeeze1x1
I0427 00:48:27.508924  8496 net.cpp:84] Creating Layer fire8/squeeze1x1
I0427 00:48:27.508941  8496 net.cpp:406] fire8/squeeze1x1 <- fire7/concat
I0427 00:48:27.508950  8496 net.cpp:380] fire8/squeeze1x1 -> fire8/squeeze1x1
I0427 00:48:27.511605  8496 net.cpp:122] Setting up fire8/squeeze1x1
I0427 00:48:27.511623  8496 net.cpp:129] Top shape: 128 64 6 5 (245760)
I0427 00:48:27.511628  8496 net.cpp:137] Memory required for data: 677939200
I0427 00:48:27.511637  8496 layer_factory.hpp:77] Creating layer fire8/relu_squeeze1x1
I0427 00:48:27.511647  8496 net.cpp:84] Creating Layer fire8/relu_squeeze1x1
I0427 00:48:27.511653  8496 net.cpp:406] fire8/relu_squeeze1x1 <- fire8/squeeze1x1
I0427 00:48:27.511660  8496 net.cpp:367] fire8/relu_squeeze1x1 -> fire8/squeeze1x1 (in-place)
I0427 00:48:27.512614  8496 net.cpp:122] Setting up fire8/relu_squeeze1x1
I0427 00:48:27.512631  8496 net.cpp:129] Top shape: 128 64 6 5 (245760)
I0427 00:48:27.512636  8496 net.cpp:137] Memory required for data: 678922240
I0427 00:48:27.512641  8496 layer_factory.hpp:77] Creating layer fire8/squeeze1x1_fire8/relu_squeeze1x1_0_split
I0427 00:48:27.512648  8496 net.cpp:84] Creating Layer fire8/squeeze1x1_fire8/relu_squeeze1x1_0_split
I0427 00:48:27.512653  8496 net.cpp:406] fire8/squeeze1x1_fire8/relu_squeeze1x1_0_split <- fire8/squeeze1x1
I0427 00:48:27.512662  8496 net.cpp:380] fire8/squeeze1x1_fire8/relu_squeeze1x1_0_split -> fire8/squeeze1x1_fire8/relu_squeeze1x1_0_split_0
I0427 00:48:27.512671  8496 net.cpp:380] fire8/squeeze1x1_fire8/relu_squeeze1x1_0_split -> fire8/squeeze1x1_fire8/relu_squeeze1x1_0_split_1
I0427 00:48:27.512740  8496 net.cpp:122] Setting up fire8/squeeze1x1_fire8/relu_squeeze1x1_0_split
I0427 00:48:27.512748  8496 net.cpp:129] Top shape: 128 64 6 5 (245760)
I0427 00:48:27.512754  8496 net.cpp:129] Top shape: 128 64 6 5 (245760)
I0427 00:48:27.512758  8496 net.cpp:137] Memory required for data: 680888320
I0427 00:48:27.512763  8496 layer_factory.hpp:77] Creating layer fire8/expand1x1
I0427 00:48:27.512773  8496 net.cpp:84] Creating Layer fire8/expand1x1
I0427 00:48:27.512778  8496 net.cpp:406] fire8/expand1x1 <- fire8/squeeze1x1_fire8/relu_squeeze1x1_0_split_0
I0427 00:48:27.512785  8496 net.cpp:380] fire8/expand1x1 -> fire8/expand1x1
I0427 00:48:27.515368  8496 net.cpp:122] Setting up fire8/expand1x1
I0427 00:48:27.515388  8496 net.cpp:129] Top shape: 128 256 6 5 (983040)
I0427 00:48:27.515393  8496 net.cpp:137] Memory required for data: 684820480
I0427 00:48:27.515401  8496 layer_factory.hpp:77] Creating layer fire8/relu_expand1x1
I0427 00:48:27.515409  8496 net.cpp:84] Creating Layer fire8/relu_expand1x1
I0427 00:48:27.515415  8496 net.cpp:406] fire8/relu_expand1x1 <- fire8/expand1x1
I0427 00:48:27.515422  8496 net.cpp:367] fire8/relu_expand1x1 -> fire8/expand1x1 (in-place)
I0427 00:48:27.516003  8496 net.cpp:122] Setting up fire8/relu_expand1x1
I0427 00:48:27.516016  8496 net.cpp:129] Top shape: 128 256 6 5 (983040)
I0427 00:48:27.516021  8496 net.cpp:137] Memory required for data: 688752640
I0427 00:48:27.516026  8496 layer_factory.hpp:77] Creating layer fire8/expand3x3
I0427 00:48:27.516037  8496 net.cpp:84] Creating Layer fire8/expand3x3
I0427 00:48:27.516042  8496 net.cpp:406] fire8/expand3x3 <- fire8/squeeze1x1_fire8/relu_squeeze1x1_0_split_1
I0427 00:48:27.516050  8496 net.cpp:380] fire8/expand3x3 -> fire8/expand3x3
I0427 00:48:27.519933  8496 net.cpp:122] Setting up fire8/expand3x3
I0427 00:48:27.519951  8496 net.cpp:129] Top shape: 128 256 6 5 (983040)
I0427 00:48:27.519956  8496 net.cpp:137] Memory required for data: 692684800
I0427 00:48:27.519968  8496 layer_factory.hpp:77] Creating layer fire8/relu_expand3x3
I0427 00:48:27.519975  8496 net.cpp:84] Creating Layer fire8/relu_expand3x3
I0427 00:48:27.519981  8496 net.cpp:406] fire8/relu_expand3x3 <- fire8/expand3x3
I0427 00:48:27.519989  8496 net.cpp:367] fire8/relu_expand3x3 -> fire8/expand3x3 (in-place)
I0427 00:48:27.520634  8496 net.cpp:122] Setting up fire8/relu_expand3x3
I0427 00:48:27.520648  8496 net.cpp:129] Top shape: 128 256 6 5 (983040)
I0427 00:48:27.520658  8496 net.cpp:137] Memory required for data: 696616960
I0427 00:48:27.520663  8496 layer_factory.hpp:77] Creating layer fire8/concat
I0427 00:48:27.520684  8496 net.cpp:84] Creating Layer fire8/concat
I0427 00:48:27.520699  8496 net.cpp:406] fire8/concat <- fire8/expand1x1
I0427 00:48:27.520704  8496 net.cpp:406] fire8/concat <- fire8/expand3x3
I0427 00:48:27.520711  8496 net.cpp:380] fire8/concat -> fire8/concat
I0427 00:48:27.520754  8496 net.cpp:122] Setting up fire8/concat
I0427 00:48:27.520763  8496 net.cpp:129] Top shape: 128 512 6 5 (1966080)
I0427 00:48:27.520767  8496 net.cpp:137] Memory required for data: 704481280
I0427 00:48:27.520771  8496 layer_factory.hpp:77] Creating layer fire9/squeeze1x1
I0427 00:48:27.520782  8496 net.cpp:84] Creating Layer fire9/squeeze1x1
I0427 00:48:27.520787  8496 net.cpp:406] fire9/squeeze1x1 <- fire8/concat
I0427 00:48:27.520797  8496 net.cpp:380] fire9/squeeze1x1 -> fire9/squeeze1x1
I0427 00:48:27.523494  8496 net.cpp:122] Setting up fire9/squeeze1x1
I0427 00:48:27.523512  8496 net.cpp:129] Top shape: 128 64 6 5 (245760)
I0427 00:48:27.523517  8496 net.cpp:137] Memory required for data: 705464320
I0427 00:48:27.523526  8496 layer_factory.hpp:77] Creating layer fire9/relu_squeeze1x1
I0427 00:48:27.523542  8496 net.cpp:84] Creating Layer fire9/relu_squeeze1x1
I0427 00:48:27.523547  8496 net.cpp:406] fire9/relu_squeeze1x1 <- fire9/squeeze1x1
I0427 00:48:27.523556  8496 net.cpp:367] fire9/relu_squeeze1x1 -> fire9/squeeze1x1 (in-place)
I0427 00:48:27.524525  8496 net.cpp:122] Setting up fire9/relu_squeeze1x1
I0427 00:48:27.524544  8496 net.cpp:129] Top shape: 128 64 6 5 (245760)
I0427 00:48:27.524549  8496 net.cpp:137] Memory required for data: 706447360
I0427 00:48:27.524554  8496 layer_factory.hpp:77] Creating layer fire9/squeeze1x1_fire9/relu_squeeze1x1_0_split
I0427 00:48:27.524564  8496 net.cpp:84] Creating Layer fire9/squeeze1x1_fire9/relu_squeeze1x1_0_split
I0427 00:48:27.524569  8496 net.cpp:406] fire9/squeeze1x1_fire9/relu_squeeze1x1_0_split <- fire9/squeeze1x1
I0427 00:48:27.524576  8496 net.cpp:380] fire9/squeeze1x1_fire9/relu_squeeze1x1_0_split -> fire9/squeeze1x1_fire9/relu_squeeze1x1_0_split_0
I0427 00:48:27.524585  8496 net.cpp:380] fire9/squeeze1x1_fire9/relu_squeeze1x1_0_split -> fire9/squeeze1x1_fire9/relu_squeeze1x1_0_split_1
I0427 00:48:27.524644  8496 net.cpp:122] Setting up fire9/squeeze1x1_fire9/relu_squeeze1x1_0_split
I0427 00:48:27.524652  8496 net.cpp:129] Top shape: 128 64 6 5 (245760)
I0427 00:48:27.524657  8496 net.cpp:129] Top shape: 128 64 6 5 (245760)
I0427 00:48:27.524662  8496 net.cpp:137] Memory required for data: 708413440
I0427 00:48:27.524667  8496 layer_factory.hpp:77] Creating layer fire9/expand1x1
I0427 00:48:27.524674  8496 net.cpp:84] Creating Layer fire9/expand1x1
I0427 00:48:27.524679  8496 net.cpp:406] fire9/expand1x1 <- fire9/squeeze1x1_fire9/relu_squeeze1x1_0_split_0
I0427 00:48:27.524693  8496 net.cpp:380] fire9/expand1x1 -> fire9/expand1x1
I0427 00:48:27.527295  8496 net.cpp:122] Setting up fire9/expand1x1
I0427 00:48:27.527313  8496 net.cpp:129] Top shape: 128 256 6 5 (983040)
I0427 00:48:27.527318  8496 net.cpp:137] Memory required for data: 712345600
I0427 00:48:27.527328  8496 layer_factory.hpp:77] Creating layer fire9/relu_expand1x1
I0427 00:48:27.527338  8496 net.cpp:84] Creating Layer fire9/relu_expand1x1
I0427 00:48:27.527343  8496 net.cpp:406] fire9/relu_expand1x1 <- fire9/expand1x1
I0427 00:48:27.527351  8496 net.cpp:367] fire9/relu_expand1x1 -> fire9/expand1x1 (in-place)
I0427 00:48:27.527923  8496 net.cpp:122] Setting up fire9/relu_expand1x1
I0427 00:48:27.527936  8496 net.cpp:129] Top shape: 128 256 6 5 (983040)
I0427 00:48:27.527940  8496 net.cpp:137] Memory required for data: 716277760
I0427 00:48:27.527945  8496 layer_factory.hpp:77] Creating layer fire9/expand3x3
I0427 00:48:27.527957  8496 net.cpp:84] Creating Layer fire9/expand3x3
I0427 00:48:27.527962  8496 net.cpp:406] fire9/expand3x3 <- fire9/squeeze1x1_fire9/relu_squeeze1x1_0_split_1
I0427 00:48:27.527969  8496 net.cpp:380] fire9/expand3x3 -> fire9/expand3x3
I0427 00:48:27.531847  8496 net.cpp:122] Setting up fire9/expand3x3
I0427 00:48:27.531864  8496 net.cpp:129] Top shape: 128 256 6 5 (983040)
I0427 00:48:27.531883  8496 net.cpp:137] Memory required for data: 720209920
I0427 00:48:27.531893  8496 layer_factory.hpp:77] Creating layer fire9/relu_expand3x3
I0427 00:48:27.531903  8496 net.cpp:84] Creating Layer fire9/relu_expand3x3
I0427 00:48:27.531909  8496 net.cpp:406] fire9/relu_expand3x3 <- fire9/expand3x3
I0427 00:48:27.531916  8496 net.cpp:367] fire9/relu_expand3x3 -> fire9/expand3x3 (in-place)
I0427 00:48:27.532500  8496 net.cpp:122] Setting up fire9/relu_expand3x3
I0427 00:48:27.532515  8496 net.cpp:129] Top shape: 128 256 6 5 (983040)
I0427 00:48:27.532518  8496 net.cpp:137] Memory required for data: 724142080
I0427 00:48:27.532523  8496 layer_factory.hpp:77] Creating layer fire9/concat
I0427 00:48:27.532532  8496 net.cpp:84] Creating Layer fire9/concat
I0427 00:48:27.532537  8496 net.cpp:406] fire9/concat <- fire9/expand1x1
I0427 00:48:27.532543  8496 net.cpp:406] fire9/concat <- fire9/expand3x3
I0427 00:48:27.532551  8496 net.cpp:380] fire9/concat -> fire9/concat
I0427 00:48:27.532590  8496 net.cpp:122] Setting up fire9/concat
I0427 00:48:27.532598  8496 net.cpp:129] Top shape: 128 512 6 5 (1966080)
I0427 00:48:27.532603  8496 net.cpp:137] Memory required for data: 732006400
I0427 00:48:27.532606  8496 layer_factory.hpp:77] Creating layer drop9
I0427 00:48:27.532618  8496 net.cpp:84] Creating Layer drop9
I0427 00:48:27.532624  8496 net.cpp:406] drop9 <- fire9/concat
I0427 00:48:27.532631  8496 net.cpp:367] drop9 -> fire9/concat (in-place)
I0427 00:48:27.532673  8496 net.cpp:122] Setting up drop9
I0427 00:48:27.532680  8496 net.cpp:129] Top shape: 128 512 6 5 (1966080)
I0427 00:48:27.532685  8496 net.cpp:137] Memory required for data: 739870720
I0427 00:48:27.532697  8496 layer_factory.hpp:77] Creating layer pool_
I0427 00:48:27.532704  8496 net.cpp:84] Creating Layer pool_
I0427 00:48:27.532709  8496 net.cpp:406] pool_ <- fire9/concat
I0427 00:48:27.532717  8496 net.cpp:380] pool_ -> pool_
I0427 00:48:27.533717  8496 net.cpp:122] Setting up pool_
I0427 00:48:27.533735  8496 net.cpp:129] Top shape: 128 512 1 1 (65536)
I0427 00:48:27.533740  8496 net.cpp:137] Memory required for data: 740132864
I0427 00:48:27.533744  8496 layer_factory.hpp:77] Creating layer fc
I0427 00:48:27.533758  8496 net.cpp:84] Creating Layer fc
I0427 00:48:27.533764  8496 net.cpp:406] fc <- pool_
I0427 00:48:27.533771  8496 net.cpp:380] fc -> pool10
I0427 00:48:27.582020  8496 net.cpp:122] Setting up fc
I0427 00:48:27.582046  8496 net.cpp:129] Top shape: 128 10575 (1353600)
I0427 00:48:27.582051  8496 net.cpp:137] Memory required for data: 745547264
I0427 00:48:27.582062  8496 layer_factory.hpp:77] Creating layer pool10_fc_0_split
I0427 00:48:27.582070  8496 net.cpp:84] Creating Layer pool10_fc_0_split
I0427 00:48:27.582075  8496 net.cpp:406] pool10_fc_0_split <- pool10
I0427 00:48:27.582085  8496 net.cpp:380] pool10_fc_0_split -> pool10_fc_0_split_0
I0427 00:48:27.582094  8496 net.cpp:380] pool10_fc_0_split -> pool10_fc_0_split_1
I0427 00:48:27.582103  8496 net.cpp:380] pool10_fc_0_split -> pool10_fc_0_split_2
I0427 00:48:27.582165  8496 net.cpp:122] Setting up pool10_fc_0_split
I0427 00:48:27.582173  8496 net.cpp:129] Top shape: 128 10575 (1353600)
I0427 00:48:27.582180  8496 net.cpp:129] Top shape: 128 10575 (1353600)
I0427 00:48:27.582185  8496 net.cpp:129] Top shape: 128 10575 (1353600)
I0427 00:48:27.582188  8496 net.cpp:137] Memory required for data: 761790464
I0427 00:48:27.582192  8496 layer_factory.hpp:77] Creating layer loss
I0427 00:48:27.582206  8496 net.cpp:84] Creating Layer loss
I0427 00:48:27.582211  8496 net.cpp:406] loss <- pool10_fc_0_split_0
I0427 00:48:27.582216  8496 net.cpp:406] loss <- label_data_1_split_0
I0427 00:48:27.582223  8496 net.cpp:380] loss -> loss
…
