…
I0427 16:11:01.160591 29605 net.cpp:294] The NetState phase (0) differed from the phase (1) specified by a rule in layer data
I0427 16:11:01.160899 29605 net.cpp:51] Initializing net from parameters: 
state {
  phase: TRAIN
  level: 0
  stage: ""
}
layer {
  name: "data"
  type: "ImageData"
  top: "data"
  top: "label"
  include {
    phase: TRAIN
  }
  transform_param {
    scale: 0.0078125
    mirror: true
    mean_value: 127.5
    mean_value: 127.5
    mean_value: 127.5
  }
  image_data_param {
    source: "/home/hzh/Recognition_face_train/dataset_path/casia_train_align_label.txt"
    batch_size: 256
    shuffle: true
  }
}
layer {
  name: "conv1"
  type: "Convolution"
  bottom: "data"
  top: "conv1"
  convolution_param {
    num_output: 64
    kernel_size: 3
    stride: 2
    weight_filler {
      type: "xavier"
    }
  }
}
layer {
  name: "relu_conv1"
  type: "ReLU"
  bottom: "conv1"
  top: "conv1"
}
layer {
  name: "pool1"
  type: "Pooling"
  bottom: "conv1"
  top: "pool1"
  pooling_param {
    pool: MAX
    kernel_size: 3
    stride: 2
  }
}
layer {
  name: "fire2/squeeze1x1"
  type: "Convolution"
  bottom: "pool1"
  top: "fire2/squeeze1x1"
  convolution_param {
    num_output: 16
    kernel_size: 1
    weight_filler {
      type: "xavier"
    }
  }
}
layer {
  name: "fire2/relu_squeeze1x1"
  type: "ReLU"
  bottom: "fire2/squeeze1x1"
  top: "fire2/squeeze1x1"
}
layer {
  name: "fire2/expand1x1"
  type: "Convolution"
  bottom: "fire2/squeeze1x1"
  top: "fire2/expand1x1"
  convolution_param {
    num_output: 64
    kernel_size: 1
    weight_filler {
      type: "xavier"
    }
  }
}
layer {
  name: "fire2/relu_expand1x1"
  type: "ReLU"
  bottom: "fire2/expand1x1"
  top: "fire2/expand1x1"
}
layer {
  name: "fire2/expand3x3"
  type: "Convolution"
  bottom: "fire2/squeeze1x1"
  top: "fire2/expand3x3"
  convolution_param {
    num_output: 64
    pad: 1
    kernel_size: 3
    weight_filler {
      type: "xavier"
    }
  }
}
layer {
  name: "fire2/relu_expand3x3"
  type: "ReLU"
  bottom: "fire2/expand3x3"
  top: "fire2/expand3x3"
}
layer {
  name: "fire2/concat"
  type: "Concat"
  bottom: "fire2/expand1x1"
  bottom: "fire2/expand3x3"
  top: "fire2/concat"
}
layer {
  name: "fire3/squeeze1x1"
  type: "Convolution"
  bottom: "fire2/concat"
  top: "fire3/squeeze1x1"
  convolution_param {
    num_output: 16
    kernel_size: 1
    weight_filler {
      type: "xavier"
    }
  }
}
layer {
  name: "fire3/relu_squeeze1x1"
  type: "ReLU"
  bottom: "fire3/squeeze1x1"
  top: "fire3/squeeze1x1"
}
layer {
  name: "fire3/expand1x1"
  type: "Convolution"
  bottom: "fire3/squeeze1x1"
  top: "fire3/expand1x1"
  convolution_param {
    num_output: 64
    kernel_size: 1
    weight_filler {
      type: "xavier"
    }
  }
}
layer {
  name: "fire3/relu_expand1x1"
  type: "ReLU"
  bottom: "fire3/expand1x1"
  top: "fire3/expand1x1"
}
layer {
  name: "fire3/expand3x3"
  type: "Convolution"
  bottom: "fire3/squeeze1x1"
  top: "fire3/expand3x3"
  convolution_param {
    num_output: 64
    pad: 1
    kernel_size: 3
    weight_filler {
      type: "xavier"
    }
  }
}
layer {
  name: "fire3/relu_expand3x3"
  type: "ReLU"
  bottom: "fire3/expand3x3"
  top: "fire3/expand3x3"
}
layer {
  name: "fire3/concat"
  type: "Concat"
  bottom: "fire3/expand1x1"
  bottom: "fire3/expand3x3"
  top: "fire3/concat"
}
layer {
  name: "pool3"
  type: "Pooling"
  bottom: "fire3/concat"
  top: "pool3"
  pooling_param {
    pool: MAX
    kernel_size: 3
    stride: 2
  }
}
layer {
  name: "fire4/squeeze1x1"
  type: "Convolution"
  bottom: "pool3"
  top: "fire4/squeeze1x1"
  convolution_param {
    num_output: 32
    kernel_size: 1
    weight_filler {
      type: "xavier"
    }
  }
}
layer {
  name: "fire4/relu_squeeze1x1"
  type: "ReLU"
  bottom: "fire4/squeeze1x1"
  top: "fire4/squeeze1x1"
}
layer {
  name: "fire4/expand1x1"
  type: "Convolution"
  bottom: "fire4/squeeze1x1"
  top: "fire4/expand1x1"
  convolution_param {
    num_output: 128
    kernel_size: 1
    weight_filler {
      type: "xavier"
    }
  }
}
layer {
  name: "fire4/relu_expand1x1"
  type: "ReLU"
  bottom: "fire4/expand1x1"
  top: "fire4/expand1x1"
}
layer {
  name: "fire4/expand3x3"
  type: "Convolution"
  bottom: "fire4/squeeze1x1"
  top: "fire4/expand3x3"
  convolution_param {
    num_output: 128
    pad: 1
    kernel_size: 3
    weight_filler {
      type: "xavier"
    }
  }
}
layer {
  name: "fire4/relu_expand3x3"
  type: "ReLU"
  bottom: "fire4/expand3x3"
  top: "fire4/expand3x3"
}
layer {
  name: "fire4/concat"
  type: "Concat"
  bottom: "fire4/expand1x1"
  bottom: "fire4/expand3x3"
  top: "fire4/concat"
}
layer {
  name: "fire5/squeeze1x1"
  type: "Convolution"
  bottom: "fire4/concat"
  top: "fire5/squeeze1x1"
  convolution_param {
    num_output: 32
    kernel_size: 1
    weight_filler {
      type: "xavier"
    }
  }
}
layer {
  name: "fire5/relu_squeeze1x1"
  type: "ReLU"
  bottom: "fire5/squeeze1x1"
  top: "fire5/squeeze1x1"
}
layer {
  name: "fire5/expand1x1"
  type: "Convolution"
  bottom: "fire5/squeeze1x1"
  top: "fire5/expand1x1"
  convolution_param {
    num_output: 128
    kernel_size: 1
    weight_filler {
      type: "xavier"
    }
  }
}
layer {
  name: "fire5/relu_expand1x1"
  type: "ReLU"
  bottom: "fire5/expand1x1"
  top: "fire5/expand1x1"
}
layer {
  name: "fire5/expand3x3"
  type: "Convolution"
  bottom: "fire5/squeeze1x1"
  top: "fire5/expand3x3"
  convolution_param {
    num_output: 128
    pad: 1
    kernel_size: 3
    weight_filler {
      type: "xavier"
    }
  }
}
layer {
  name: "fire5/relu_expand3x3"
  type: "ReLU"
  bottom: "fire5/expand3x3"
  top: "fire5/expand3x3"
}
layer {
  name: "fire5/concat"
  type: "Concat"
  bottom: "fire5/expand1x1"
  bottom: "fire5/expand3x3"
  top: "fire5/concat"
}
layer {
  name: "pool5"
  type: "Pooling"
  bottom: "fire5/concat"
  top: "pool5"
  pooling_param {
    pool: MAX
    kernel_size: 3
    stride: 2
  }
}
layer {
  name: "fire6/squeeze1x1"
  type: "Convolution"
  bottom: "pool5"
  top: "fire6/squeeze1x1"
  convolution_param {
    num_output: 48
    kernel_size: 1
    weight_filler {
      type: "xavier"
    }
  }
}
layer {
  name: "fire6/relu_squeeze1x1"
  type: "ReLU"
  bottom: "fire6/squeeze1x1"
  top: "fire6/squeeze1x1"
}
layer {
  name: "fire6/expand1x1"
  type: "Convolution"
  bottom: "fire6/squeeze1x1"
  top: "fire6/expand1x1"
  convolution_param {
    num_output: 192
    kernel_size: 1
    weight_filler {
      type: "xavier"
    }
  }
}
layer {
  name: "fire6/relu_expand1x1"
  type: "ReLU"
  bottom: "fire6/expand1x1"
  top: "fire6/expand1x1"
}
layer {
  name: "fire6/expand3x3"
  type: "Convolution"
  bottom: "fire6/squeeze1x1"
  top: "fire6/expand3x3"
  convolution_param {
    num_output: 192
    pad: 1
    kernel_size: 3
    weight_filler {
      type: "xavier"
    }
  }
}
layer {
  name: "fire6/relu_expand3x3"
  type: "ReLU"
  bottom: "fire6/expand3x3"
  top: "fire6/expand3x3"
}
layer {
  name: "fire6/concat"
  type: "Concat"
  bottom: "fire6/expand1x1"
  bottom: "fire6/expand3x3"
  top: "fire6/concat"
}
layer {
  name: "fire7/squeeze1x1"
  type: "Convolution"
  bottom: "fire6/concat"
  top: "fire7/squeeze1x1"
  convolution_param {
    num_output: 48
    kernel_size: 1
    weight_filler {
      type: "xavier"
    }
  }
}
layer {
  name: "fire7/relu_squeeze1x1"
  type: "ReLU"
  bottom: "fire7/squeeze1x1"
  top: "fire7/squeeze1x1"
}
layer {
  name: "fire7/expand1x1"
  type: "Convolution"
  bottom: "fire7/squeeze1x1"
  top: "fire7/expand1x1"
  convolution_param {
    num_output: 192
    kernel_size: 1
    weight_filler {
      type: "xavier"
    }
  }
}
layer {
  name: "fire7/relu_expand1x1"
  type: "ReLU"
  bottom: "fire7/expand1x1"
  top: "fire7/expand1x1"
}
layer {
  name: "fire7/expand3x3"
  type: "Convolution"
  bottom: "fire7/squeeze1x1"
  top: "fire7/expand3x3"
  convolution_param {
    num_output: 192
    pad: 1
    kernel_size: 3
    weight_filler {
      type: "xavier"
    }
  }
}
layer {
  name: "fire7/relu_expand3x3"
  type: "ReLU"
  bottom: "fire7/expand3x3"
  top: "fire7/expand3x3"
}
layer {
  name: "fire7/concat"
  type: "Concat"
  bottom: "fire7/expand1x1"
  bottom: "fire7/expand3x3"
  top: "fire7/concat"
}
layer {
  name: "fire8/squeeze1x1"
  type: "Convolution"
  bottom: "fire7/concat"
  top: "fire8/squeeze1x1"
  convolution_param {
    num_output: 64
    kernel_size: 1
    weight_filler {
      type: "xavier"
    }
  }
}
layer {
  name: "fire8/relu_squeeze1x1"
  type: "ReLU"
  bottom: "fire8/squeeze1x1"
  top: "fire8/squeeze1x1"
}
layer {
  name: "fire8/expand1x1"
  type: "Convolution"
  bottom: "fire8/squeeze1x1"
  top: "fire8/expand1x1"
  convolution_param {
    num_output: 256
    kernel_size: 1
    weight_filler {
      type: "xavier"
    }
  }
}
layer {
  name: "fire8/relu_expand1x1"
  type: "ReLU"
  bottom: "fire8/expand1x1"
  top: "fire8/expand1x1"
}
layer {
  name: "fire8/expand3x3"
  type: "Convolution"
  bottom: "fire8/squeeze1x1"
  top: "fire8/expand3x3"
  convolution_param {
    num_output: 256
    pad: 1
    kernel_size: 3
    weight_filler {
      type: "xavier"
    }
  }
}
layer {
  name: "fire8/relu_expand3x3"
  type: "ReLU"
  bottom: "fire8/expand3x3"
  top: "fire8/expand3x3"
}
layer {
  name: "fire8/concat"
  type: "Concat"
  bottom: "fire8/expand1x1"
  bottom: "fire8/expand3x3"
  top: "fire8/concat"
}
layer {
  name: "fire9/squeeze1x1"
  type: "Convolution"
  bottom: "fire8/concat"
  top: "fire9/squeeze1x1"
  convolution_param {
    num_output: 64
    kernel_size: 1
    weight_filler {
      type: "xavier"
    }
  }
}
layer {
  name: "fire9/relu_squeeze1x1"
  type: "ReLU"
  bottom: "fire9/squeeze1x1"
  top: "fire9/squeeze1x1"
}
layer {
  name: "fire9/expand1x1"
  type: "Convolution"
  bottom: "fire9/squeeze1x1"
  top: "fire9/expand1x1"
  convolution_param {
    num_output: 256
    kernel_size: 1
    weight_filler {
      type: "xavier"
    }
  }
}
layer {
  name: "fire9/relu_expand1x1"
  type: "ReLU"
  bottom: "fire9/expand1x1"
  top: "fire9/expand1x1"
}
layer {
  name: "fire9/expand3x3"
  type: "Convolution"
  bottom: "fire9/squeeze1x1"
  top: "fire9/expand3x3"
  convolution_param {
    num_output: 256
    pad: 1
    kernel_size: 3
    weight_filler {
      type: "xavier"
    }
  }
}
layer {
  name: "fire9/relu_expand3x3"
  type: "ReLU"
  bottom: "fire9/expand3x3"
  top: "fire9/expand3x3"
}
layer {
  name: "fire9/concat"
  type: "Concat"
  bottom: "fire9/expand1x1"
  bottom: "fire9/expand3x3"
  top: "fire9/concat"
}
layer {
  name: "drop9"
  type: "Dropout"
  bottom: "fire9/concat"
  top: "fire9/concat"
  dropout_param {
    dropout_ratio: 0.5
  }
}
layer {
  name: "pool_"
  type: "Pooling"
  bottom: "fire9/concat"
  top: "pool_"
  pooling_param {
    pool: AVE
    global_pooling: true
  }
}
layer {
  name: "fc"
  type: "InnerProduct"
  bottom: "pool_"
  top: "pool10"
  param {
    lr_mult: 1
    decay_mult: 1
  }
  param {
    lr_mult: 2
    decay_mult: 0
  }
  inner_product_param {
    num_output: 10575
    weight_filler {
      type: "xavier"
    }
    bias_filler {
      type: "constant"
      value: 0
    }
  }
}
layer {
  name: "loss"
  type: "SoftmaxWithLoss"
  bottom: "pool10"
  bottom: "label"
  top: "loss"
}
layer {
  name: "accuracy"
  type: "Accuracy"
  bottom: "pool10"
  bottom: "label"
  top: "accuracy"
}
layer {
  name: "accuracy_top5"
  type: "Accuracy"
  bottom: "pool10"
  bottom: "label"
  top: "accuracy_top5"
  accuracy_param {
    top_k: 5
  }
}
I0427 16:11:01.161319 29605 layer_factory.hpp:77] Creating layer data
I0427 16:11:01.161368 29605 net.cpp:84] Creating Layer data
I0427 16:11:01.161381 29605 net.cpp:380] data -> data
I0427 16:11:01.161420 29605 net.cpp:380] data -> label
I0427 16:11:01.161450 29605 image_data_layer.cpp:38] Opening file /home/hzh/Recognition_face_train/dataset_path/casia_train_align_label.txt
I0427 16:11:01.332904 29605 image_data_layer.cpp:53] Shuffling data
I0427 16:11:01.422503 29605 image_data_layer.cpp:63] A total of 450114 images.
I0427 16:11:01.425410 29605 image_data_layer.cpp:90] output data size: 256,3,112,96
I0427 16:11:01.520675 29605 net.cpp:122] Setting up data
I0427 16:11:01.520742 29605 net.cpp:129] Top shape: 256 3 112 96 (8257536)
I0427 16:11:01.520751 29605 net.cpp:129] Top shape: 256 (256)
I0427 16:11:01.520756 29605 net.cpp:137] Memory required for data: 33031168
I0427 16:11:01.520766 29605 layer_factory.hpp:77] Creating layer label_data_1_split
I0427 16:11:01.520783 29605 net.cpp:84] Creating Layer label_data_1_split
I0427 16:11:01.520792 29605 net.cpp:406] label_data_1_split <- label
I0427 16:11:01.520807 29605 net.cpp:380] label_data_1_split -> label_data_1_split_0
I0427 16:11:01.520818 29605 net.cpp:380] label_data_1_split -> label_data_1_split_1
I0427 16:11:01.520828 29605 net.cpp:380] label_data_1_split -> label_data_1_split_2
I0427 16:11:01.520959 29605 net.cpp:122] Setting up label_data_1_split
I0427 16:11:01.520969 29605 net.cpp:129] Top shape: 256 (256)
I0427 16:11:01.520974 29605 net.cpp:129] Top shape: 256 (256)
I0427 16:11:01.520979 29605 net.cpp:129] Top shape: 256 (256)
I0427 16:11:01.520984 29605 net.cpp:137] Memory required for data: 33034240
I0427 16:11:01.520988 29605 layer_factory.hpp:77] Creating layer conv1
I0427 16:11:01.521011 29605 net.cpp:84] Creating Layer conv1
I0427 16:11:01.521018 29605 net.cpp:406] conv1 <- data
I0427 16:11:01.521024 29605 net.cpp:380] conv1 -> conv1
I0427 16:11:02.319510 29605 net.cpp:122] Setting up conv1
I0427 16:11:02.319551 29605 net.cpp:129] Top shape: 256 64 55 47 (42352640)
I0427 16:11:02.319558 29605 net.cpp:137] Memory required for data: 202444800
I0427 16:11:02.319583 29605 layer_factory.hpp:77] Creating layer relu_conv1
I0427 16:11:02.319599 29605 net.cpp:84] Creating Layer relu_conv1
I0427 16:11:02.319607 29605 net.cpp:406] relu_conv1 <- conv1
I0427 16:11:02.319614 29605 net.cpp:367] relu_conv1 -> conv1 (in-place)
I0427 16:11:02.320086 29605 net.cpp:122] Setting up relu_conv1
I0427 16:11:02.320101 29605 net.cpp:129] Top shape: 256 64 55 47 (42352640)
I0427 16:11:02.320106 29605 net.cpp:137] Memory required for data: 371855360
I0427 16:11:02.320111 29605 layer_factory.hpp:77] Creating layer pool1
I0427 16:11:02.320127 29605 net.cpp:84] Creating Layer pool1
I0427 16:11:02.320132 29605 net.cpp:406] pool1 <- conv1
I0427 16:11:02.320140 29605 net.cpp:380] pool1 -> pool1
I0427 16:11:02.320201 29605 net.cpp:122] Setting up pool1
I0427 16:11:02.320210 29605 net.cpp:129] Top shape: 256 64 27 23 (10174464)
I0427 16:11:02.320214 29605 net.cpp:137] Memory required for data: 412553216
I0427 16:11:02.320219 29605 layer_factory.hpp:77] Creating layer fire2/squeeze1x1
I0427 16:11:02.320231 29605 net.cpp:84] Creating Layer fire2/squeeze1x1
I0427 16:11:02.320236 29605 net.cpp:406] fire2/squeeze1x1 <- pool1
I0427 16:11:02.320243 29605 net.cpp:380] fire2/squeeze1x1 -> fire2/squeeze1x1
I0427 16:11:02.323830 29605 net.cpp:122] Setting up fire2/squeeze1x1
I0427 16:11:02.323850 29605 net.cpp:129] Top shape: 256 16 27 23 (2543616)
I0427 16:11:02.323856 29605 net.cpp:137] Memory required for data: 422727680
I0427 16:11:02.323868 29605 layer_factory.hpp:77] Creating layer fire2/relu_squeeze1x1
I0427 16:11:02.323876 29605 net.cpp:84] Creating Layer fire2/relu_squeeze1x1
I0427 16:11:02.323882 29605 net.cpp:406] fire2/relu_squeeze1x1 <- fire2/squeeze1x1
I0427 16:11:02.323889 29605 net.cpp:367] fire2/relu_squeeze1x1 -> fire2/squeeze1x1 (in-place)
I0427 16:11:02.324348 29605 net.cpp:122] Setting up fire2/relu_squeeze1x1
I0427 16:11:02.324362 29605 net.cpp:129] Top shape: 256 16 27 23 (2543616)
I0427 16:11:02.324365 29605 net.cpp:137] Memory required for data: 432902144
I0427 16:11:02.324375 29605 layer_factory.hpp:77] Creating layer fire2/squeeze1x1_fire2/relu_squeeze1x1_0_split
I0427 16:11:02.324409 29605 net.cpp:84] Creating Layer fire2/squeeze1x1_fire2/relu_squeeze1x1_0_split
I0427 16:11:02.324414 29605 net.cpp:406] fire2/squeeze1x1_fire2/relu_squeeze1x1_0_split <- fire2/squeeze1x1
I0427 16:11:02.324422 29605 net.cpp:380] fire2/squeeze1x1_fire2/relu_squeeze1x1_0_split -> fire2/squeeze1x1_fire2/relu_squeeze1x1_0_split_0
I0427 16:11:02.324434 29605 net.cpp:380] fire2/squeeze1x1_fire2/relu_squeeze1x1_0_split -> fire2/squeeze1x1_fire2/relu_squeeze1x1_0_split_1
I0427 16:11:02.324486 29605 net.cpp:122] Setting up fire2/squeeze1x1_fire2/relu_squeeze1x1_0_split
I0427 16:11:02.324496 29605 net.cpp:129] Top shape: 256 16 27 23 (2543616)
I0427 16:11:02.324501 29605 net.cpp:129] Top shape: 256 16 27 23 (2543616)
I0427 16:11:02.324506 29605 net.cpp:137] Memory required for data: 453251072
I0427 16:11:02.324510 29605 layer_factory.hpp:77] Creating layer fire2/expand1x1
I0427 16:11:02.324522 29605 net.cpp:84] Creating Layer fire2/expand1x1
I0427 16:11:02.324527 29605 net.cpp:406] fire2/expand1x1 <- fire2/squeeze1x1_fire2/relu_squeeze1x1_0_split_0
I0427 16:11:02.324533 29605 net.cpp:380] fire2/expand1x1 -> fire2/expand1x1
I0427 16:11:02.326611 29605 net.cpp:122] Setting up fire2/expand1x1
I0427 16:11:02.326632 29605 net.cpp:129] Top shape: 256 64 27 23 (10174464)
I0427 16:11:02.326637 29605 net.cpp:137] Memory required for data: 493948928
I0427 16:11:02.326649 29605 layer_factory.hpp:77] Creating layer fire2/relu_expand1x1
I0427 16:11:02.326658 29605 net.cpp:84] Creating Layer fire2/relu_expand1x1
I0427 16:11:02.326663 29605 net.cpp:406] fire2/relu_expand1x1 <- fire2/expand1x1
I0427 16:11:02.326669 29605 net.cpp:367] fire2/relu_expand1x1 -> fire2/expand1x1 (in-place)
I0427 16:11:02.327525 29605 net.cpp:122] Setting up fire2/relu_expand1x1
I0427 16:11:02.327543 29605 net.cpp:129] Top shape: 256 64 27 23 (10174464)
I0427 16:11:02.327548 29605 net.cpp:137] Memory required for data: 534646784
I0427 16:11:02.327553 29605 layer_factory.hpp:77] Creating layer fire2/expand3x3
I0427 16:11:02.327564 29605 net.cpp:84] Creating Layer fire2/expand3x3
I0427 16:11:02.327569 29605 net.cpp:406] fire2/expand3x3 <- fire2/squeeze1x1_fire2/relu_squeeze1x1_0_split_1
I0427 16:11:02.327577 29605 net.cpp:380] fire2/expand3x3 -> fire2/expand3x3
I0427 16:11:02.331156 29605 net.cpp:122] Setting up fire2/expand3x3
I0427 16:11:02.331176 29605 net.cpp:129] Top shape: 256 64 27 23 (10174464)
I0427 16:11:02.331181 29605 net.cpp:137] Memory required for data: 575344640
I0427 16:11:02.331189 29605 layer_factory.hpp:77] Creating layer fire2/relu_expand3x3
I0427 16:11:02.331197 29605 net.cpp:84] Creating Layer fire2/relu_expand3x3
I0427 16:11:02.331202 29605 net.cpp:406] fire2/relu_expand3x3 <- fire2/expand3x3
I0427 16:11:02.331210 29605 net.cpp:367] fire2/relu_expand3x3 -> fire2/expand3x3 (in-place)
I0427 16:11:02.331650 29605 net.cpp:122] Setting up fire2/relu_expand3x3
I0427 16:11:02.331662 29605 net.cpp:129] Top shape: 256 64 27 23 (10174464)
I0427 16:11:02.331667 29605 net.cpp:137] Memory required for data: 616042496
I0427 16:11:02.331672 29605 layer_factory.hpp:77] Creating layer fire2/concat
I0427 16:11:02.331683 29605 net.cpp:84] Creating Layer fire2/concat
I0427 16:11:02.331696 29605 net.cpp:406] fire2/concat <- fire2/expand1x1
I0427 16:11:02.331702 29605 net.cpp:406] fire2/concat <- fire2/expand3x3
I0427 16:11:02.331709 29605 net.cpp:380] fire2/concat -> fire2/concat
I0427 16:11:02.331750 29605 net.cpp:122] Setting up fire2/concat
I0427 16:11:02.331759 29605 net.cpp:129] Top shape: 256 128 27 23 (20348928)
I0427 16:11:02.331764 29605 net.cpp:137] Memory required for data: 697438208
I0427 16:11:02.331768 29605 layer_factory.hpp:77] Creating layer fire3/squeeze1x1
I0427 16:11:02.331778 29605 net.cpp:84] Creating Layer fire3/squeeze1x1
I0427 16:11:02.331782 29605 net.cpp:406] fire3/squeeze1x1 <- fire2/concat
I0427 16:11:02.331789 29605 net.cpp:380] fire3/squeeze1x1 -> fire3/squeeze1x1
I0427 16:11:02.333935 29605 net.cpp:122] Setting up fire3/squeeze1x1
I0427 16:11:02.333957 29605 net.cpp:129] Top shape: 256 16 27 23 (2543616)
I0427 16:11:02.333976 29605 net.cpp:137] Memory required for data: 707612672
I0427 16:11:02.333992 29605 layer_factory.hpp:77] Creating layer fire3/relu_squeeze1x1
I0427 16:11:02.334003 29605 net.cpp:84] Creating Layer fire3/relu_squeeze1x1
I0427 16:11:02.334008 29605 net.cpp:406] fire3/relu_squeeze1x1 <- fire3/squeeze1x1
I0427 16:11:02.334015 29605 net.cpp:367] fire3/relu_squeeze1x1 -> fire3/squeeze1x1 (in-place)
I0427 16:11:02.334604 29605 net.cpp:122] Setting up fire3/relu_squeeze1x1
I0427 16:11:02.334619 29605 net.cpp:129] Top shape: 256 16 27 23 (2543616)
I0427 16:11:02.334623 29605 net.cpp:137] Memory required for data: 717787136
I0427 16:11:02.334628 29605 layer_factory.hpp:77] Creating layer fire3/squeeze1x1_fire3/relu_squeeze1x1_0_split
I0427 16:11:02.334635 29605 net.cpp:84] Creating Layer fire3/squeeze1x1_fire3/relu_squeeze1x1_0_split
I0427 16:11:02.334640 29605 net.cpp:406] fire3/squeeze1x1_fire3/relu_squeeze1x1_0_split <- fire3/squeeze1x1
I0427 16:11:02.334648 29605 net.cpp:380] fire3/squeeze1x1_fire3/relu_squeeze1x1_0_split -> fire3/squeeze1x1_fire3/relu_squeeze1x1_0_split_0
I0427 16:11:02.334656 29605 net.cpp:380] fire3/squeeze1x1_fire3/relu_squeeze1x1_0_split -> fire3/squeeze1x1_fire3/relu_squeeze1x1_0_split_1
I0427 16:11:02.334722 29605 net.cpp:122] Setting up fire3/squeeze1x1_fire3/relu_squeeze1x1_0_split
I0427 16:11:02.334731 29605 net.cpp:129] Top shape: 256 16 27 23 (2543616)
I0427 16:11:02.334736 29605 net.cpp:129] Top shape: 256 16 27 23 (2543616)
I0427 16:11:02.334740 29605 net.cpp:137] Memory required for data: 738136064
I0427 16:11:02.334745 29605 layer_factory.hpp:77] Creating layer fire3/expand1x1
I0427 16:11:02.334759 29605 net.cpp:84] Creating Layer fire3/expand1x1
I0427 16:11:02.334764 29605 net.cpp:406] fire3/expand1x1 <- fire3/squeeze1x1_fire3/relu_squeeze1x1_0_split_0
I0427 16:11:02.334770 29605 net.cpp:380] fire3/expand1x1 -> fire3/expand1x1
I0427 16:11:02.337288 29605 net.cpp:122] Setting up fire3/expand1x1
I0427 16:11:02.337308 29605 net.cpp:129] Top shape: 256 64 27 23 (10174464)
I0427 16:11:02.337313 29605 net.cpp:137] Memory required for data: 778833920
I0427 16:11:02.337321 29605 layer_factory.hpp:77] Creating layer fire3/relu_expand1x1
I0427 16:11:02.337330 29605 net.cpp:84] Creating Layer fire3/relu_expand1x1
I0427 16:11:02.337335 29605 net.cpp:406] fire3/relu_expand1x1 <- fire3/expand1x1
I0427 16:11:02.337344 29605 net.cpp:367] fire3/relu_expand1x1 -> fire3/expand1x1 (in-place)
I0427 16:11:02.338318 29605 net.cpp:122] Setting up fire3/relu_expand1x1
I0427 16:11:02.338335 29605 net.cpp:129] Top shape: 256 64 27 23 (10174464)
I0427 16:11:02.338340 29605 net.cpp:137] Memory required for data: 819531776
I0427 16:11:02.338346 29605 layer_factory.hpp:77] Creating layer fire3/expand3x3
I0427 16:11:02.338357 29605 net.cpp:84] Creating Layer fire3/expand3x3
I0427 16:11:02.338363 29605 net.cpp:406] fire3/expand3x3 <- fire3/squeeze1x1_fire3/relu_squeeze1x1_0_split_1
I0427 16:11:02.338373 29605 net.cpp:380] fire3/expand3x3 -> fire3/expand3x3
I0427 16:11:02.340987 29605 net.cpp:122] Setting up fire3/expand3x3
I0427 16:11:02.341006 29605 net.cpp:129] Top shape: 256 64 27 23 (10174464)
I0427 16:11:02.341011 29605 net.cpp:137] Memory required for data: 860229632
I0427 16:11:02.341019 29605 layer_factory.hpp:77] Creating layer fire3/relu_expand3x3
I0427 16:11:02.341027 29605 net.cpp:84] Creating Layer fire3/relu_expand3x3
I0427 16:11:02.341032 29605 net.cpp:406] fire3/relu_expand3x3 <- fire3/expand3x3
I0427 16:11:02.341043 29605 net.cpp:367] fire3/relu_expand3x3 -> fire3/expand3x3 (in-place)
I0427 16:11:02.341631 29605 net.cpp:122] Setting up fire3/relu_expand3x3
I0427 16:11:02.341645 29605 net.cpp:129] Top shape: 256 64 27 23 (10174464)
I0427 16:11:02.341650 29605 net.cpp:137] Memory required for data: 900927488
I0427 16:11:02.341655 29605 layer_factory.hpp:77] Creating layer fire3/concat
I0427 16:11:02.341661 29605 net.cpp:84] Creating Layer fire3/concat
I0427 16:11:02.341666 29605 net.cpp:406] fire3/concat <- fire3/expand1x1
I0427 16:11:02.341676 29605 net.cpp:406] fire3/concat <- fire3/expand3x3
I0427 16:11:02.341706 29605 net.cpp:380] fire3/concat -> fire3/concat
I0427 16:11:02.341744 29605 net.cpp:122] Setting up fire3/concat
I0427 16:11:02.341753 29605 net.cpp:129] Top shape: 256 128 27 23 (20348928)
I0427 16:11:02.341758 29605 net.cpp:137] Memory required for data: 982323200
I0427 16:11:02.341763 29605 layer_factory.hpp:77] Creating layer pool3
I0427 16:11:02.341773 29605 net.cpp:84] Creating Layer pool3
I0427 16:11:02.341776 29605 net.cpp:406] pool3 <- fire3/concat
I0427 16:11:02.341784 29605 net.cpp:380] pool3 -> pool3
I0427 16:11:02.341842 29605 net.cpp:122] Setting up pool3
I0427 16:11:02.341851 29605 net.cpp:129] Top shape: 256 128 13 11 (4685824)
I0427 16:11:02.341856 29605 net.cpp:137] Memory required for data: 1001066496
I0427 16:11:02.341859 29605 layer_factory.hpp:77] Creating layer fire4/squeeze1x1
I0427 16:11:02.341871 29605 net.cpp:84] Creating Layer fire4/squeeze1x1
I0427 16:11:02.341876 29605 net.cpp:406] fire4/squeeze1x1 <- pool3
I0427 16:11:02.341884 29605 net.cpp:380] fire4/squeeze1x1 -> fire4/squeeze1x1
I0427 16:11:02.344482 29605 net.cpp:122] Setting up fire4/squeeze1x1
I0427 16:11:02.344501 29605 net.cpp:129] Top shape: 256 32 13 11 (1171456)
I0427 16:11:02.344506 29605 net.cpp:137] Memory required for data: 1005752320
I0427 16:11:02.344514 29605 layer_factory.hpp:77] Creating layer fire4/relu_squeeze1x1
I0427 16:11:02.344537 29605 net.cpp:84] Creating Layer fire4/relu_squeeze1x1
I0427 16:11:02.344543 29605 net.cpp:406] fire4/relu_squeeze1x1 <- fire4/squeeze1x1
I0427 16:11:02.344552 29605 net.cpp:367] fire4/relu_squeeze1x1 -> fire4/squeeze1x1 (in-place)
I0427 16:11:02.345142 29605 net.cpp:122] Setting up fire4/relu_squeeze1x1
I0427 16:11:02.345156 29605 net.cpp:129] Top shape: 256 32 13 11 (1171456)
I0427 16:11:02.345161 29605 net.cpp:137] Memory required for data: 1010438144
I0427 16:11:02.345165 29605 layer_factory.hpp:77] Creating layer fire4/squeeze1x1_fire4/relu_squeeze1x1_0_split
I0427 16:11:02.345175 29605 net.cpp:84] Creating Layer fire4/squeeze1x1_fire4/relu_squeeze1x1_0_split
I0427 16:11:02.345180 29605 net.cpp:406] fire4/squeeze1x1_fire4/relu_squeeze1x1_0_split <- fire4/squeeze1x1
I0427 16:11:02.345186 29605 net.cpp:380] fire4/squeeze1x1_fire4/relu_squeeze1x1_0_split -> fire4/squeeze1x1_fire4/relu_squeeze1x1_0_split_0
I0427 16:11:02.345194 29605 net.cpp:380] fire4/squeeze1x1_fire4/relu_squeeze1x1_0_split -> fire4/squeeze1x1_fire4/relu_squeeze1x1_0_split_1
I0427 16:11:02.345254 29605 net.cpp:122] Setting up fire4/squeeze1x1_fire4/relu_squeeze1x1_0_split
I0427 16:11:02.345263 29605 net.cpp:129] Top shape: 256 32 13 11 (1171456)
I0427 16:11:02.345268 29605 net.cpp:129] Top shape: 256 32 13 11 (1171456)
I0427 16:11:02.345271 29605 net.cpp:137] Memory required for data: 1019809792
I0427 16:11:02.345275 29605 layer_factory.hpp:77] Creating layer fire4/expand1x1
I0427 16:11:02.345286 29605 net.cpp:84] Creating Layer fire4/expand1x1
I0427 16:11:02.345291 29605 net.cpp:406] fire4/expand1x1 <- fire4/squeeze1x1_fire4/relu_squeeze1x1_0_split_0
I0427 16:11:02.345297 29605 net.cpp:380] fire4/expand1x1 -> fire4/expand1x1
I0427 16:11:02.347846 29605 net.cpp:122] Setting up fire4/expand1x1
I0427 16:11:02.347865 29605 net.cpp:129] Top shape: 256 128 13 11 (4685824)
I0427 16:11:02.347870 29605 net.cpp:137] Memory required for data: 1038553088
I0427 16:11:02.347882 29605 layer_factory.hpp:77] Creating layer fire4/relu_expand1x1
I0427 16:11:02.347892 29605 net.cpp:84] Creating Layer fire4/relu_expand1x1
I0427 16:11:02.347896 29605 net.cpp:406] fire4/relu_expand1x1 <- fire4/expand1x1
I0427 16:11:02.347906 29605 net.cpp:367] fire4/relu_expand1x1 -> fire4/expand1x1 (in-place)
I0427 16:11:02.348491 29605 net.cpp:122] Setting up fire4/relu_expand1x1
I0427 16:11:02.348505 29605 net.cpp:129] Top shape: 256 128 13 11 (4685824)
I0427 16:11:02.348510 29605 net.cpp:137] Memory required for data: 1057296384
I0427 16:11:02.348515 29605 layer_factory.hpp:77] Creating layer fire4/expand3x3
I0427 16:11:02.348533 29605 net.cpp:84] Creating Layer fire4/expand3x3
I0427 16:11:02.348538 29605 net.cpp:406] fire4/expand3x3 <- fire4/squeeze1x1_fire4/relu_squeeze1x1_0_split_1
I0427 16:11:02.348562 29605 net.cpp:380] fire4/expand3x3 -> fire4/expand3x3
I0427 16:11:02.353260 29605 net.cpp:122] Setting up fire4/expand3x3
I0427 16:11:02.353278 29605 net.cpp:129] Top shape: 256 128 13 11 (4685824)
I0427 16:11:02.353284 29605 net.cpp:137] Memory required for data: 1076039680
I0427 16:11:02.353293 29605 layer_factory.hpp:77] Creating layer fire4/relu_expand3x3
I0427 16:11:02.353303 29605 net.cpp:84] Creating Layer fire4/relu_expand3x3
I0427 16:11:02.353309 29605 net.cpp:406] fire4/relu_expand3x3 <- fire4/expand3x3
I0427 16:11:02.353317 29605 net.cpp:367] fire4/relu_expand3x3 -> fire4/expand3x3 (in-place)
I0427 16:11:02.354274 29605 net.cpp:122] Setting up fire4/relu_expand3x3
I0427 16:11:02.354292 29605 net.cpp:129] Top shape: 256 128 13 11 (4685824)
I0427 16:11:02.354297 29605 net.cpp:137] Memory required for data: 1094782976
I0427 16:11:02.354302 29605 layer_factory.hpp:77] Creating layer fire4/concat
I0427 16:11:02.354310 29605 net.cpp:84] Creating Layer fire4/concat
I0427 16:11:02.354315 29605 net.cpp:406] fire4/concat <- fire4/expand1x1
I0427 16:11:02.354321 29605 net.cpp:406] fire4/concat <- fire4/expand3x3
I0427 16:11:02.354327 29605 net.cpp:380] fire4/concat -> fire4/concat
I0427 16:11:02.354368 29605 net.cpp:122] Setting up fire4/concat
I0427 16:11:02.354377 29605 net.cpp:129] Top shape: 256 256 13 11 (9371648)
I0427 16:11:02.354382 29605 net.cpp:137] Memory required for data: 1132269568
I0427 16:11:02.354385 29605 layer_factory.hpp:77] Creating layer fire5/squeeze1x1
I0427 16:11:02.354396 29605 net.cpp:84] Creating Layer fire5/squeeze1x1
I0427 16:11:02.354401 29605 net.cpp:406] fire5/squeeze1x1 <- fire4/concat
I0427 16:11:02.354410 29605 net.cpp:380] fire5/squeeze1x1 -> fire5/squeeze1x1
I0427 16:11:02.357045 29605 net.cpp:122] Setting up fire5/squeeze1x1
I0427 16:11:02.357064 29605 net.cpp:129] Top shape: 256 32 13 11 (1171456)
I0427 16:11:02.357069 29605 net.cpp:137] Memory required for data: 1136955392
I0427 16:11:02.357077 29605 layer_factory.hpp:77] Creating layer fire5/relu_squeeze1x1
I0427 16:11:02.357089 29605 net.cpp:84] Creating Layer fire5/relu_squeeze1x1
I0427 16:11:02.357094 29605 net.cpp:406] fire5/relu_squeeze1x1 <- fire5/squeeze1x1
I0427 16:11:02.357100 29605 net.cpp:367] fire5/relu_squeeze1x1 -> fire5/squeeze1x1 (in-place)
I0427 16:11:02.357697 29605 net.cpp:122] Setting up fire5/relu_squeeze1x1
I0427 16:11:02.357712 29605 net.cpp:129] Top shape: 256 32 13 11 (1171456)
I0427 16:11:02.357715 29605 net.cpp:137] Memory required for data: 1141641216
I0427 16:11:02.357720 29605 layer_factory.hpp:77] Creating layer fire5/squeeze1x1_fire5/relu_squeeze1x1_0_split
I0427 16:11:02.357733 29605 net.cpp:84] Creating Layer fire5/squeeze1x1_fire5/relu_squeeze1x1_0_split
I0427 16:11:02.357738 29605 net.cpp:406] fire5/squeeze1x1_fire5/relu_squeeze1x1_0_split <- fire5/squeeze1x1
I0427 16:11:02.357746 29605 net.cpp:380] fire5/squeeze1x1_fire5/relu_squeeze1x1_0_split -> fire5/squeeze1x1_fire5/relu_squeeze1x1_0_split_0
I0427 16:11:02.357755 29605 net.cpp:380] fire5/squeeze1x1_fire5/relu_squeeze1x1_0_split -> fire5/squeeze1x1_fire5/relu_squeeze1x1_0_split_1
I0427 16:11:02.357813 29605 net.cpp:122] Setting up fire5/squeeze1x1_fire5/relu_squeeze1x1_0_split
I0427 16:11:02.357827 29605 net.cpp:129] Top shape: 256 32 13 11 (1171456)
I0427 16:11:02.357833 29605 net.cpp:129] Top shape: 256 32 13 11 (1171456)
I0427 16:11:02.357837 29605 net.cpp:137] Memory required for data: 1151012864
I0427 16:11:02.357841 29605 layer_factory.hpp:77] Creating layer fire5/expand1x1
I0427 16:11:02.357851 29605 net.cpp:84] Creating Layer fire5/expand1x1
I0427 16:11:02.357854 29605 net.cpp:406] fire5/expand1x1 <- fire5/squeeze1x1_fire5/relu_squeeze1x1_0_split_0
I0427 16:11:02.357863 29605 net.cpp:380] fire5/expand1x1 -> fire5/expand1x1
I0427 16:11:02.360446 29605 net.cpp:122] Setting up fire5/expand1x1
I0427 16:11:02.360466 29605 net.cpp:129] Top shape: 256 128 13 11 (4685824)
I0427 16:11:02.360474 29605 net.cpp:137] Memory required for data: 1169756160
I0427 16:11:02.360483 29605 layer_factory.hpp:77] Creating layer fire5/relu_expand1x1
I0427 16:11:02.360512 29605 net.cpp:84] Creating Layer fire5/relu_expand1x1
I0427 16:11:02.360518 29605 net.cpp:406] fire5/relu_expand1x1 <- fire5/expand1x1
I0427 16:11:02.360527 29605 net.cpp:367] fire5/relu_expand1x1 -> fire5/expand1x1 (in-place)
I0427 16:11:02.361121 29605 net.cpp:122] Setting up fire5/relu_expand1x1
I0427 16:11:02.361136 29605 net.cpp:129] Top shape: 256 128 13 11 (4685824)
I0427 16:11:02.361140 29605 net.cpp:137] Memory required for data: 1188499456
I0427 16:11:02.361145 29605 layer_factory.hpp:77] Creating layer fire5/expand3x3
I0427 16:11:02.361157 29605 net.cpp:84] Creating Layer fire5/expand3x3
I0427 16:11:02.361163 29605 net.cpp:406] fire5/expand3x3 <- fire5/squeeze1x1_fire5/relu_squeeze1x1_0_split_1
I0427 16:11:02.361172 29605 net.cpp:380] fire5/expand3x3 -> fire5/expand3x3
I0427 16:11:02.363982 29605 net.cpp:122] Setting up fire5/expand3x3
I0427 16:11:02.364001 29605 net.cpp:129] Top shape: 256 128 13 11 (4685824)
I0427 16:11:02.364006 29605 net.cpp:137] Memory required for data: 1207242752
I0427 16:11:02.364015 29605 layer_factory.hpp:77] Creating layer fire5/relu_expand3x3
I0427 16:11:02.364023 29605 net.cpp:84] Creating Layer fire5/relu_expand3x3
I0427 16:11:02.364028 29605 net.cpp:406] fire5/relu_expand3x3 <- fire5/expand3x3
I0427 16:11:02.364037 29605 net.cpp:367] fire5/relu_expand3x3 -> fire5/expand3x3 (in-place)
I0427 16:11:02.365069 29605 net.cpp:122] Setting up fire5/relu_expand3x3
I0427 16:11:02.365087 29605 net.cpp:129] Top shape: 256 128 13 11 (4685824)
I0427 16:11:02.365092 29605 net.cpp:137] Memory required for data: 1225986048
I0427 16:11:02.365097 29605 layer_factory.hpp:77] Creating layer fire5/concat
I0427 16:11:02.365104 29605 net.cpp:84] Creating Layer fire5/concat
I0427 16:11:02.365109 29605 net.cpp:406] fire5/concat <- fire5/expand1x1
I0427 16:11:02.365115 29605 net.cpp:406] fire5/concat <- fire5/expand3x3
I0427 16:11:02.365126 29605 net.cpp:380] fire5/concat -> fire5/concat
I0427 16:11:02.365167 29605 net.cpp:122] Setting up fire5/concat
I0427 16:11:02.365178 29605 net.cpp:129] Top shape: 256 256 13 11 (9371648)
I0427 16:11:02.365182 29605 net.cpp:137] Memory required for data: 1263472640
I0427 16:11:02.365187 29605 layer_factory.hpp:77] Creating layer pool5
I0427 16:11:02.365195 29605 net.cpp:84] Creating Layer pool5
I0427 16:11:02.365200 29605 net.cpp:406] pool5 <- fire5/concat
I0427 16:11:02.365206 29605 net.cpp:380] pool5 -> pool5
I0427 16:11:02.365260 29605 net.cpp:122] Setting up pool5
I0427 16:11:02.365269 29605 net.cpp:129] Top shape: 256 256 6 5 (1966080)
I0427 16:11:02.365273 29605 net.cpp:137] Memory required for data: 1271336960
I0427 16:11:02.365278 29605 layer_factory.hpp:77] Creating layer fire6/squeeze1x1
I0427 16:11:02.365290 29605 net.cpp:84] Creating Layer fire6/squeeze1x1
I0427 16:11:02.365295 29605 net.cpp:406] fire6/squeeze1x1 <- pool5
I0427 16:11:02.365301 29605 net.cpp:380] fire6/squeeze1x1 -> fire6/squeeze1x1
I0427 16:11:02.367983 29605 net.cpp:122] Setting up fire6/squeeze1x1
I0427 16:11:02.368005 29605 net.cpp:129] Top shape: 256 48 6 5 (368640)
I0427 16:11:02.368010 29605 net.cpp:137] Memory required for data: 1272811520
I0427 16:11:02.368018 29605 layer_factory.hpp:77] Creating layer fire6/relu_squeeze1x1
I0427 16:11:02.368028 29605 net.cpp:84] Creating Layer fire6/relu_squeeze1x1
I0427 16:11:02.368033 29605 net.cpp:406] fire6/relu_squeeze1x1 <- fire6/squeeze1x1
I0427 16:11:02.368041 29605 net.cpp:367] fire6/relu_squeeze1x1 -> fire6/squeeze1x1 (in-place)
I0427 16:11:02.368621 29605 net.cpp:122] Setting up fire6/relu_squeeze1x1
I0427 16:11:02.368634 29605 net.cpp:129] Top shape: 256 48 6 5 (368640)
I0427 16:11:02.368639 29605 net.cpp:137] Memory required for data: 1274286080
I0427 16:11:02.368643 29605 layer_factory.hpp:77] Creating layer fire6/squeeze1x1_fire6/relu_squeeze1x1_0_split
I0427 16:11:02.368650 29605 net.cpp:84] Creating Layer fire6/squeeze1x1_fire6/relu_squeeze1x1_0_split
I0427 16:11:02.368659 29605 net.cpp:406] fire6/squeeze1x1_fire6/relu_squeeze1x1_0_split <- fire6/squeeze1x1
I0427 16:11:02.368680 29605 net.cpp:380] fire6/squeeze1x1_fire6/relu_squeeze1x1_0_split -> fire6/squeeze1x1_fire6/relu_squeeze1x1_0_split_0
I0427 16:11:02.368696 29605 net.cpp:380] fire6/squeeze1x1_fire6/relu_squeeze1x1_0_split -> fire6/squeeze1x1_fire6/relu_squeeze1x1_0_split_1
I0427 16:11:02.368758 29605 net.cpp:122] Setting up fire6/squeeze1x1_fire6/relu_squeeze1x1_0_split
I0427 16:11:02.368767 29605 net.cpp:129] Top shape: 256 48 6 5 (368640)
I0427 16:11:02.368773 29605 net.cpp:129] Top shape: 256 48 6 5 (368640)
I0427 16:11:02.368777 29605 net.cpp:137] Memory required for data: 1277235200
I0427 16:11:02.368782 29605 layer_factory.hpp:77] Creating layer fire6/expand1x1
I0427 16:11:02.368793 29605 net.cpp:84] Creating Layer fire6/expand1x1
I0427 16:11:02.368798 29605 net.cpp:406] fire6/expand1x1 <- fire6/squeeze1x1_fire6/relu_squeeze1x1_0_split_0
I0427 16:11:02.368808 29605 net.cpp:380] fire6/expand1x1 -> fire6/expand1x1
I0427 16:11:02.371896 29605 net.cpp:122] Setting up fire6/expand1x1
I0427 16:11:02.371913 29605 net.cpp:129] Top shape: 256 192 6 5 (1474560)
I0427 16:11:02.371918 29605 net.cpp:137] Memory required for data: 1283133440
I0427 16:11:02.371927 29605 layer_factory.hpp:77] Creating layer fire6/relu_expand1x1
I0427 16:11:02.371937 29605 net.cpp:84] Creating Layer fire6/relu_expand1x1
I0427 16:11:02.371943 29605 net.cpp:406] fire6/relu_expand1x1 <- fire6/expand1x1
I0427 16:11:02.371950 29605 net.cpp:367] fire6/relu_expand1x1 -> fire6/expand1x1 (in-place)
I0427 16:11:02.372551 29605 net.cpp:122] Setting up fire6/relu_expand1x1
I0427 16:11:02.372565 29605 net.cpp:129] Top shape: 256 192 6 5 (1474560)
I0427 16:11:02.372570 29605 net.cpp:137] Memory required for data: 1289031680
I0427 16:11:02.372575 29605 layer_factory.hpp:77] Creating layer fire6/expand3x3
I0427 16:11:02.372586 29605 net.cpp:84] Creating Layer fire6/expand3x3
I0427 16:11:02.372592 29605 net.cpp:406] fire6/expand3x3 <- fire6/squeeze1x1_fire6/relu_squeeze1x1_0_split_1
I0427 16:11:02.372599 29605 net.cpp:380] fire6/expand3x3 -> fire6/expand3x3
I0427 16:11:02.377584 29605 net.cpp:122] Setting up fire6/expand3x3
I0427 16:11:02.377604 29605 net.cpp:129] Top shape: 256 192 6 5 (1474560)
I0427 16:11:02.377609 29605 net.cpp:137] Memory required for data: 1294929920
I0427 16:11:02.377617 29605 layer_factory.hpp:77] Creating layer fire6/relu_expand3x3
I0427 16:11:02.377625 29605 net.cpp:84] Creating Layer fire6/relu_expand3x3
I0427 16:11:02.377631 29605 net.cpp:406] fire6/relu_expand3x3 <- fire6/expand3x3
I0427 16:11:02.377645 29605 net.cpp:367] fire6/relu_expand3x3 -> fire6/expand3x3 (in-place)
I0427 16:11:02.378614 29605 net.cpp:122] Setting up fire6/relu_expand3x3
I0427 16:11:02.378633 29605 net.cpp:129] Top shape: 256 192 6 5 (1474560)
I0427 16:11:02.378638 29605 net.cpp:137] Memory required for data: 1300828160
I0427 16:11:02.378641 29605 layer_factory.hpp:77] Creating layer fire6/concat
I0427 16:11:02.378651 29605 net.cpp:84] Creating Layer fire6/concat
I0427 16:11:02.378657 29605 net.cpp:406] fire6/concat <- fire6/expand1x1
I0427 16:11:02.378664 29605 net.cpp:406] fire6/concat <- fire6/expand3x3
I0427 16:11:02.378669 29605 net.cpp:380] fire6/concat -> fire6/concat
I0427 16:11:02.378723 29605 net.cpp:122] Setting up fire6/concat
I0427 16:11:02.378732 29605 net.cpp:129] Top shape: 256 384 6 5 (2949120)
I0427 16:11:02.378736 29605 net.cpp:137] Memory required for data: 1312624640
I0427 16:11:02.378741 29605 layer_factory.hpp:77] Creating layer fire7/squeeze1x1
I0427 16:11:02.378751 29605 net.cpp:84] Creating Layer fire7/squeeze1x1
I0427 16:11:02.378756 29605 net.cpp:406] fire7/squeeze1x1 <- fire6/concat
I0427 16:11:02.378763 29605 net.cpp:380] fire7/squeeze1x1 -> fire7/squeeze1x1
I0427 16:11:02.381480 29605 net.cpp:122] Setting up fire7/squeeze1x1
I0427 16:11:02.381498 29605 net.cpp:129] Top shape: 256 48 6 5 (368640)
I0427 16:11:02.381503 29605 net.cpp:137] Memory required for data: 1314099200
I0427 16:11:02.381520 29605 layer_factory.hpp:77] Creating layer fire7/relu_squeeze1x1
I0427 16:11:02.381533 29605 net.cpp:84] Creating Layer fire7/relu_squeeze1x1
I0427 16:11:02.381552 29605 net.cpp:406] fire7/relu_squeeze1x1 <- fire7/squeeze1x1
I0427 16:11:02.381562 29605 net.cpp:367] fire7/relu_squeeze1x1 -> fire7/squeeze1x1 (in-place)
I0427 16:11:02.382148 29605 net.cpp:122] Setting up fire7/relu_squeeze1x1
I0427 16:11:02.382160 29605 net.cpp:129] Top shape: 256 48 6 5 (368640)
I0427 16:11:02.382165 29605 net.cpp:137] Memory required for data: 1315573760
I0427 16:11:02.382170 29605 layer_factory.hpp:77] Creating layer fire7/squeeze1x1_fire7/relu_squeeze1x1_0_split
I0427 16:11:02.382177 29605 net.cpp:84] Creating Layer fire7/squeeze1x1_fire7/relu_squeeze1x1_0_split
I0427 16:11:02.382181 29605 net.cpp:406] fire7/squeeze1x1_fire7/relu_squeeze1x1_0_split <- fire7/squeeze1x1
I0427 16:11:02.382190 29605 net.cpp:380] fire7/squeeze1x1_fire7/relu_squeeze1x1_0_split -> fire7/squeeze1x1_fire7/relu_squeeze1x1_0_split_0
I0427 16:11:02.382200 29605 net.cpp:380] fire7/squeeze1x1_fire7/relu_squeeze1x1_0_split -> fire7/squeeze1x1_fire7/relu_squeeze1x1_0_split_1
I0427 16:11:02.382263 29605 net.cpp:122] Setting up fire7/squeeze1x1_fire7/relu_squeeze1x1_0_split
I0427 16:11:02.382274 29605 net.cpp:129] Top shape: 256 48 6 5 (368640)
I0427 16:11:02.382280 29605 net.cpp:129] Top shape: 256 48 6 5 (368640)
I0427 16:11:02.382283 29605 net.cpp:137] Memory required for data: 1318522880
I0427 16:11:02.382288 29605 layer_factory.hpp:77] Creating layer fire7/expand1x1
I0427 16:11:02.382297 29605 net.cpp:84] Creating Layer fire7/expand1x1
I0427 16:11:02.382302 29605 net.cpp:406] fire7/expand1x1 <- fire7/squeeze1x1_fire7/relu_squeeze1x1_0_split_0
I0427 16:11:02.382310 29605 net.cpp:380] fire7/expand1x1 -> fire7/expand1x1
I0427 16:11:02.384975 29605 net.cpp:122] Setting up fire7/expand1x1
I0427 16:11:02.384994 29605 net.cpp:129] Top shape: 256 192 6 5 (1474560)
I0427 16:11:02.384999 29605 net.cpp:137] Memory required for data: 1324421120
I0427 16:11:02.385008 29605 layer_factory.hpp:77] Creating layer fire7/relu_expand1x1
I0427 16:11:02.385018 29605 net.cpp:84] Creating Layer fire7/relu_expand1x1
I0427 16:11:02.385025 29605 net.cpp:406] fire7/relu_expand1x1 <- fire7/expand1x1
I0427 16:11:02.385031 29605 net.cpp:367] fire7/relu_expand1x1 -> fire7/expand1x1 (in-place)
I0427 16:11:02.385618 29605 net.cpp:122] Setting up fire7/relu_expand1x1
I0427 16:11:02.385632 29605 net.cpp:129] Top shape: 256 192 6 5 (1474560)
I0427 16:11:02.385637 29605 net.cpp:137] Memory required for data: 1330319360
I0427 16:11:02.385640 29605 layer_factory.hpp:77] Creating layer fire7/expand3x3
I0427 16:11:02.385654 29605 net.cpp:84] Creating Layer fire7/expand3x3
I0427 16:11:02.385660 29605 net.cpp:406] fire7/expand3x3 <- fire7/squeeze1x1_fire7/relu_squeeze1x1_0_split_1
I0427 16:11:02.385668 29605 net.cpp:380] fire7/expand3x3 -> fire7/expand3x3
I0427 16:11:02.389225 29605 net.cpp:122] Setting up fire7/expand3x3
I0427 16:11:02.389243 29605 net.cpp:129] Top shape: 256 192 6 5 (1474560)
I0427 16:11:02.389248 29605 net.cpp:137] Memory required for data: 1336217600
I0427 16:11:02.389257 29605 layer_factory.hpp:77] Creating layer fire7/relu_expand3x3
I0427 16:11:02.389267 29605 net.cpp:84] Creating Layer fire7/relu_expand3x3
I0427 16:11:02.389273 29605 net.cpp:406] fire7/relu_expand3x3 <- fire7/expand3x3
I0427 16:11:02.389281 29605 net.cpp:367] fire7/relu_expand3x3 -> fire7/expand3x3 (in-place)
I0427 16:11:02.389899 29605 net.cpp:122] Setting up fire7/relu_expand3x3
I0427 16:11:02.389914 29605 net.cpp:129] Top shape: 256 192 6 5 (1474560)
I0427 16:11:02.389919 29605 net.cpp:137] Memory required for data: 1342115840
I0427 16:11:02.389924 29605 layer_factory.hpp:77] Creating layer fire7/concat
I0427 16:11:02.389932 29605 net.cpp:84] Creating Layer fire7/concat
I0427 16:11:02.389938 29605 net.cpp:406] fire7/concat <- fire7/expand1x1
I0427 16:11:02.389945 29605 net.cpp:406] fire7/concat <- fire7/expand3x3
I0427 16:11:02.389952 29605 net.cpp:380] fire7/concat -> fire7/concat
I0427 16:11:02.389994 29605 net.cpp:122] Setting up fire7/concat
I0427 16:11:02.390007 29605 net.cpp:129] Top shape: 256 384 6 5 (2949120)
I0427 16:11:02.390023 29605 net.cpp:137] Memory required for data: 1353912320
I0427 16:11:02.390028 29605 layer_factory.hpp:77] Creating layer fire8/squeeze1x1
I0427 16:11:02.390043 29605 net.cpp:84] Creating Layer fire8/squeeze1x1
I0427 16:11:02.390048 29605 net.cpp:406] fire8/squeeze1x1 <- fire7/concat
I0427 16:11:02.390058 29605 net.cpp:380] fire8/squeeze1x1 -> fire8/squeeze1x1
I0427 16:11:02.392809 29605 net.cpp:122] Setting up fire8/squeeze1x1
I0427 16:11:02.392827 29605 net.cpp:129] Top shape: 256 64 6 5 (491520)
I0427 16:11:02.392833 29605 net.cpp:137] Memory required for data: 1355878400
I0427 16:11:02.392841 29605 layer_factory.hpp:77] Creating layer fire8/relu_squeeze1x1
I0427 16:11:02.392851 29605 net.cpp:84] Creating Layer fire8/relu_squeeze1x1
I0427 16:11:02.392856 29605 net.cpp:406] fire8/relu_squeeze1x1 <- fire8/squeeze1x1
I0427 16:11:02.392863 29605 net.cpp:367] fire8/relu_squeeze1x1 -> fire8/squeeze1x1 (in-place)
I0427 16:11:02.393870 29605 net.cpp:122] Setting up fire8/relu_squeeze1x1
I0427 16:11:02.393887 29605 net.cpp:129] Top shape: 256 64 6 5 (491520)
I0427 16:11:02.393893 29605 net.cpp:137] Memory required for data: 1357844480
I0427 16:11:02.393898 29605 layer_factory.hpp:77] Creating layer fire8/squeeze1x1_fire8/relu_squeeze1x1_0_split
I0427 16:11:02.393908 29605 net.cpp:84] Creating Layer fire8/squeeze1x1_fire8/relu_squeeze1x1_0_split
I0427 16:11:02.393913 29605 net.cpp:406] fire8/squeeze1x1_fire8/relu_squeeze1x1_0_split <- fire8/squeeze1x1
I0427 16:11:02.393919 29605 net.cpp:380] fire8/squeeze1x1_fire8/relu_squeeze1x1_0_split -> fire8/squeeze1x1_fire8/relu_squeeze1x1_0_split_0
I0427 16:11:02.393929 29605 net.cpp:380] fire8/squeeze1x1_fire8/relu_squeeze1x1_0_split -> fire8/squeeze1x1_fire8/relu_squeeze1x1_0_split_1
I0427 16:11:02.393991 29605 net.cpp:122] Setting up fire8/squeeze1x1_fire8/relu_squeeze1x1_0_split
I0427 16:11:02.394001 29605 net.cpp:129] Top shape: 256 64 6 5 (491520)
I0427 16:11:02.394006 29605 net.cpp:129] Top shape: 256 64 6 5 (491520)
I0427 16:11:02.394009 29605 net.cpp:137] Memory required for data: 1361776640
I0427 16:11:02.394013 29605 layer_factory.hpp:77] Creating layer fire8/expand1x1
I0427 16:11:02.394024 29605 net.cpp:84] Creating Layer fire8/expand1x1
I0427 16:11:02.394029 29605 net.cpp:406] fire8/expand1x1 <- fire8/squeeze1x1_fire8/relu_squeeze1x1_0_split_0
I0427 16:11:02.394035 29605 net.cpp:380] fire8/expand1x1 -> fire8/expand1x1
I0427 16:11:02.396752 29605 net.cpp:122] Setting up fire8/expand1x1
I0427 16:11:02.396770 29605 net.cpp:129] Top shape: 256 256 6 5 (1966080)
I0427 16:11:02.396775 29605 net.cpp:137] Memory required for data: 1369640960
I0427 16:11:02.396785 29605 layer_factory.hpp:77] Creating layer fire8/relu_expand1x1
I0427 16:11:02.396792 29605 net.cpp:84] Creating Layer fire8/relu_expand1x1
I0427 16:11:02.396798 29605 net.cpp:406] fire8/relu_expand1x1 <- fire8/expand1x1
I0427 16:11:02.396806 29605 net.cpp:367] fire8/relu_expand1x1 -> fire8/expand1x1 (in-place)
I0427 16:11:02.397420 29605 net.cpp:122] Setting up fire8/relu_expand1x1
I0427 16:11:02.397434 29605 net.cpp:129] Top shape: 256 256 6 5 (1966080)
I0427 16:11:02.397439 29605 net.cpp:137] Memory required for data: 1377505280
I0427 16:11:02.397444 29605 layer_factory.hpp:77] Creating layer fire8/expand3x3
I0427 16:11:02.397454 29605 net.cpp:84] Creating Layer fire8/expand3x3
I0427 16:11:02.397460 29605 net.cpp:406] fire8/expand3x3 <- fire8/squeeze1x1_fire8/relu_squeeze1x1_0_split_1
I0427 16:11:02.397467 29605 net.cpp:380] fire8/expand3x3 -> fire8/expand3x3
I0427 16:11:02.401470 29605 net.cpp:122] Setting up fire8/expand3x3
I0427 16:11:02.401497 29605 net.cpp:129] Top shape: 256 256 6 5 (1966080)
I0427 16:11:02.401504 29605 net.cpp:137] Memory required for data: 1385369600
I0427 16:11:02.401512 29605 layer_factory.hpp:77] Creating layer fire8/relu_expand3x3
I0427 16:11:02.401520 29605 net.cpp:84] Creating Layer fire8/relu_expand3x3
I0427 16:11:02.401526 29605 net.cpp:406] fire8/relu_expand3x3 <- fire8/expand3x3
I0427 16:11:02.401537 29605 net.cpp:367] fire8/relu_expand3x3 -> fire8/expand3x3 (in-place)
I0427 16:11:02.402231 29605 net.cpp:122] Setting up fire8/relu_expand3x3
I0427 16:11:02.402246 29605 net.cpp:129] Top shape: 256 256 6 5 (1966080)
I0427 16:11:02.402251 29605 net.cpp:137] Memory required for data: 1393233920
I0427 16:11:02.402256 29605 layer_factory.hpp:77] Creating layer fire8/concat
I0427 16:11:02.402266 29605 net.cpp:84] Creating Layer fire8/concat
I0427 16:11:02.402271 29605 net.cpp:406] fire8/concat <- fire8/expand1x1
I0427 16:11:02.402277 29605 net.cpp:406] fire8/concat <- fire8/expand3x3
I0427 16:11:02.402285 29605 net.cpp:380] fire8/concat -> fire8/concat
I0427 16:11:02.402329 29605 net.cpp:122] Setting up fire8/concat
I0427 16:11:02.402338 29605 net.cpp:129] Top shape: 256 512 6 5 (3932160)
I0427 16:11:02.402343 29605 net.cpp:137] Memory required for data: 1408962560
I0427 16:11:02.402348 29605 layer_factory.hpp:77] Creating layer fire9/squeeze1x1
I0427 16:11:02.402364 29605 net.cpp:84] Creating Layer fire9/squeeze1x1
I0427 16:11:02.402369 29605 net.cpp:406] fire9/squeeze1x1 <- fire8/concat
I0427 16:11:02.402377 29605 net.cpp:380] fire9/squeeze1x1 -> fire9/squeeze1x1
I0427 16:11:02.405227 29605 net.cpp:122] Setting up fire9/squeeze1x1
I0427 16:11:02.405246 29605 net.cpp:129] Top shape: 256 64 6 5 (491520)
I0427 16:11:02.405251 29605 net.cpp:137] Memory required for data: 1410928640
I0427 16:11:02.405261 29605 layer_factory.hpp:77] Creating layer fire9/relu_squeeze1x1
I0427 16:11:02.405278 29605 net.cpp:84] Creating Layer fire9/relu_squeeze1x1
I0427 16:11:02.405285 29605 net.cpp:406] fire9/relu_squeeze1x1 <- fire9/squeeze1x1
I0427 16:11:02.405295 29605 net.cpp:367] fire9/relu_squeeze1x1 -> fire9/squeeze1x1 (in-place)
I0427 16:11:02.406323 29605 net.cpp:122] Setting up fire9/relu_squeeze1x1
I0427 16:11:02.406342 29605 net.cpp:129] Top shape: 256 64 6 5 (491520)
I0427 16:11:02.406347 29605 net.cpp:137] Memory required for data: 1412894720
I0427 16:11:02.406352 29605 layer_factory.hpp:77] Creating layer fire9/squeeze1x1_fire9/relu_squeeze1x1_0_split
I0427 16:11:02.406359 29605 net.cpp:84] Creating Layer fire9/squeeze1x1_fire9/relu_squeeze1x1_0_split
I0427 16:11:02.406368 29605 net.cpp:406] fire9/squeeze1x1_fire9/relu_squeeze1x1_0_split <- fire9/squeeze1x1
I0427 16:11:02.406374 29605 net.cpp:380] fire9/squeeze1x1_fire9/relu_squeeze1x1_0_split -> fire9/squeeze1x1_fire9/relu_squeeze1x1_0_split_0
I0427 16:11:02.406383 29605 net.cpp:380] fire9/squeeze1x1_fire9/relu_squeeze1x1_0_split -> fire9/squeeze1x1_fire9/relu_squeeze1x1_0_split_1
I0427 16:11:02.406446 29605 net.cpp:122] Setting up fire9/squeeze1x1_fire9/relu_squeeze1x1_0_split
I0427 16:11:02.406455 29605 net.cpp:129] Top shape: 256 64 6 5 (491520)
I0427 16:11:02.406461 29605 net.cpp:129] Top shape: 256 64 6 5 (491520)
I0427 16:11:02.406464 29605 net.cpp:137] Memory required for data: 1416826880
I0427 16:11:02.406469 29605 layer_factory.hpp:77] Creating layer fire9/expand1x1
I0427 16:11:02.406481 29605 net.cpp:84] Creating Layer fire9/expand1x1
I0427 16:11:02.406486 29605 net.cpp:406] fire9/expand1x1 <- fire9/squeeze1x1_fire9/relu_squeeze1x1_0_split_0
I0427 16:11:02.406492 29605 net.cpp:380] fire9/expand1x1 -> fire9/expand1x1
I0427 16:11:02.409194 29605 net.cpp:122] Setting up fire9/expand1x1
I0427 16:11:02.409212 29605 net.cpp:129] Top shape: 256 256 6 5 (1966080)
I0427 16:11:02.409217 29605 net.cpp:137] Memory required for data: 1424691200
I0427 16:11:02.409229 29605 layer_factory.hpp:77] Creating layer fire9/relu_expand1x1
I0427 16:11:02.409236 29605 net.cpp:84] Creating Layer fire9/relu_expand1x1
I0427 16:11:02.409241 29605 net.cpp:406] fire9/relu_expand1x1 <- fire9/expand1x1
I0427 16:11:02.409251 29605 net.cpp:367] fire9/relu_expand1x1 -> fire9/expand1x1 (in-place)
I0427 16:11:02.409837 29605 net.cpp:122] Setting up fire9/relu_expand1x1
I0427 16:11:02.409849 29605 net.cpp:129] Top shape: 256 256 6 5 (1966080)
I0427 16:11:02.409854 29605 net.cpp:137] Memory required for data: 1432555520
I0427 16:11:02.409859 29605 layer_factory.hpp:77] Creating layer fire9/expand3x3
I0427 16:11:02.409874 29605 net.cpp:84] Creating Layer fire9/expand3x3
I0427 16:11:02.409880 29605 net.cpp:406] fire9/expand3x3 <- fire9/squeeze1x1_fire9/relu_squeeze1x1_0_split_1
I0427 16:11:02.409901 29605 net.cpp:380] fire9/expand3x3 -> fire9/expand3x3
I0427 16:11:02.413951 29605 net.cpp:122] Setting up fire9/expand3x3
I0427 16:11:02.413970 29605 net.cpp:129] Top shape: 256 256 6 5 (1966080)
I0427 16:11:02.413975 29605 net.cpp:137] Memory required for data: 1440419840
I0427 16:11:02.413985 29605 layer_factory.hpp:77] Creating layer fire9/relu_expand3x3
I0427 16:11:02.413993 29605 net.cpp:84] Creating Layer fire9/relu_expand3x3
I0427 16:11:02.414000 29605 net.cpp:406] fire9/relu_expand3x3 <- fire9/expand3x3
I0427 16:11:02.414006 29605 net.cpp:367] fire9/relu_expand3x3 -> fire9/expand3x3 (in-place)
I0427 16:11:02.414633 29605 net.cpp:122] Setting up fire9/relu_expand3x3
I0427 16:11:02.414646 29605 net.cpp:129] Top shape: 256 256 6 5 (1966080)
I0427 16:11:02.414651 29605 net.cpp:137] Memory required for data: 1448284160
I0427 16:11:02.414656 29605 layer_factory.hpp:77] Creating layer fire9/concat
I0427 16:11:02.414674 29605 net.cpp:84] Creating Layer fire9/concat
I0427 16:11:02.414680 29605 net.cpp:406] fire9/concat <- fire9/expand1x1
I0427 16:11:02.414693 29605 net.cpp:406] fire9/concat <- fire9/expand3x3
I0427 16:11:02.414703 29605 net.cpp:380] fire9/concat -> fire9/concat
I0427 16:11:02.414746 29605 net.cpp:122] Setting up fire9/concat
I0427 16:11:02.414754 29605 net.cpp:129] Top shape: 256 512 6 5 (3932160)
I0427 16:11:02.414758 29605 net.cpp:137] Memory required for data: 1464012800
I0427 16:11:02.414762 29605 layer_factory.hpp:77] Creating layer drop9
I0427 16:11:02.414778 29605 net.cpp:84] Creating Layer drop9
I0427 16:11:02.414784 29605 net.cpp:406] drop9 <- fire9/concat
I0427 16:11:02.414789 29605 net.cpp:367] drop9 -> fire9/concat (in-place)
I0427 16:11:02.414831 29605 net.cpp:122] Setting up drop9
I0427 16:11:02.414839 29605 net.cpp:129] Top shape: 256 512 6 5 (3932160)
I0427 16:11:02.414844 29605 net.cpp:137] Memory required for data: 1479741440
I0427 16:11:02.414847 29605 layer_factory.hpp:77] Creating layer pool_
I0427 16:11:02.414855 29605 net.cpp:84] Creating Layer pool_
I0427 16:11:02.414860 29605 net.cpp:406] pool_ <- fire9/concat
I0427 16:11:02.414866 29605 net.cpp:380] pool_ -> pool_
I0427 16:11:02.415902 29605 net.cpp:122] Setting up pool_
I0427 16:11:02.415920 29605 net.cpp:129] Top shape: 256 512 1 1 (131072)
I0427 16:11:02.415925 29605 net.cpp:137] Memory required for data: 1480265728
I0427 16:11:02.415930 29605 layer_factory.hpp:77] Creating layer fc
I0427 16:11:02.415946 29605 net.cpp:84] Creating Layer fc
I0427 16:11:02.415951 29605 net.cpp:406] fc <- pool_
I0427 16:11:02.415958 29605 net.cpp:380] fc -> pool10
I0427 16:11:02.464218 29605 net.cpp:122] Setting up fc
I0427 16:11:02.464246 29605 net.cpp:129] Top shape: 256 10575 (2707200)
I0427 16:11:02.464251 29605 net.cpp:137] Memory required for data: 1491094528
I0427 16:11:02.464260 29605 layer_factory.hpp:77] Creating layer pool10_fc_0_split
I0427 16:11:02.464268 29605 net.cpp:84] Creating Layer pool10_fc_0_split
I0427 16:11:02.464273 29605 net.cpp:406] pool10_fc_0_split <- pool10
I0427 16:11:02.464282 29605 net.cpp:380] pool10_fc_0_split -> pool10_fc_0_split_0
I0427 16:11:02.464293 29605 net.cpp:380] pool10_fc_0_split -> pool10_fc_0_split_1
I0427 16:11:02.464299 29605 net.cpp:380] pool10_fc_0_split -> pool10_fc_0_split_2
I0427 16:11:02.464365 29605 net.cpp:122] Setting up pool10_fc_0_split
I0427 16:11:02.464378 29605 net.cpp:129] Top shape: 256 10575 (2707200)
I0427 16:11:02.464385 29605 net.cpp:129] Top shape: 256 10575 (2707200)
I0427 16:11:02.464390 29605 net.cpp:129] Top shape: 256 10575 (2707200)
I0427 16:11:02.464393 29605 net.cpp:137] Memory required for data: 1523580928
I0427 16:11:02.464397 29605 layer_factory.hpp:77] Creating layer loss
I0427 16:11:02.464407 29605 net.cpp:84] Creating Layer loss
I0427 16:11:02.464413 29605 net.cpp:406] loss <- pool10_fc_0_split_0
I0427 16:11:02.464418 29605 net.cpp:406] loss <- label_data_1_split_0
I0427 16:11:02.464431 29605 net.cpp:380] loss -> loss
…
I0427 16:11:02.474648 29605 net.cpp:294] The NetState phase (1) differed from the phase (0) specified by a rule in layer data
I0427 16:11:02.474942 29605 net.cpp:51] Initializing net from parameters: 
state {
  phase: TEST
}
layer {
  name: "data"
  type: "ImageData"
  top: "data"
  top: "label"
  include {
    phase: TEST
  }
  transform_param {
    scale: 0.0078125
    mirror: true
    mean_value: 127.5
    mean_value: 127.5
    mean_value: 127.5
  }
  image_data_param {
    source: "/home/hzh/Recognition_face_train/dataset_path/lfw_label.txt"
    batch_size: 256
    shuffle: true
  }
}
layer {
  name: "conv1"
  type: "Convolution"
  bottom: "data"
  top: "conv1"
  convolution_param {
    num_output: 64
    kernel_size: 3
    stride: 2
    weight_filler {
      type: "xavier"
    }
  }
}
layer {
  name: "relu_conv1"
  type: "ReLU"
  bottom: "conv1"
  top: "conv1"
}
layer {
  name: "pool1"
  type: "Pooling"
  bottom: "conv1"
  top: "pool1"
  pooling_param {
    pool: MAX
    kernel_size: 3
    stride: 2
  }
}
layer {
  name: "fire2/squeeze1x1"
  type: "Convolution"
  bottom: "pool1"
  top: "fire2/squeeze1x1"
  convolution_param {
    num_output: 16
    kernel_size: 1
    weight_filler {
      type: "xavier"
    }
  }
}
layer {
  name: "fire2/relu_squeeze1x1"
  type: "ReLU"
  bottom: "fire2/squeeze1x1"
  top: "fire2/squeeze1x1"
}
layer {
  name: "fire2/expand1x1"
  type: "Convolution"
  bottom: "fire2/squeeze1x1"
  top: "fire2/expand1x1"
  convolution_param {
    num_output: 64
    kernel_size: 1
    weight_filler {
      type: "xavier"
    }
  }
}
layer {
  name: "fire2/relu_expand1x1"
  type: "ReLU"
  bottom: "fire2/expand1x1"
  top: "fire2/expand1x1"
}
layer {
  name: "fire2/expand3x3"
  type: "Convolution"
  bottom: "fire2/squeeze1x1"
  top: "fire2/expand3x3"
  convolution_param {
    num_output: 64
    pad: 1
    kernel_size: 3
    weight_filler {
      type: "xavier"
    }
  }
}
layer {
  name: "fire2/relu_expand3x3"
  type: "ReLU"
  bottom: "fire2/expand3x3"
  top: "fire2/expand3x3"
}
layer {
  name: "fire2/concat"
  type: "Concat"
  bottom: "fire2/expand1x1"
  bottom: "fire2/expand3x3"
  top: "fire2/concat"
}
layer {
  name: "fire3/squeeze1x1"
  type: "Convolution"
  bottom: "fire2/concat"
  top: "fire3/squeeze1x1"
  convolution_param {
    num_output: 16
    kernel_size: 1
    weight_filler {
      type: "xavier"
    }
  }
}
layer {
  name: "fire3/relu_squeeze1x1"
  type: "ReLU"
  bottom: "fire3/squeeze1x1"
  top: "fire3/squeeze1x1"
}
layer {
  name: "fire3/expand1x1"
  type: "Convolution"
  bottom: "fire3/squeeze1x1"
  top: "fire3/expand1x1"
  convolution_param {
    num_output: 64
    kernel_size: 1
    weight_filler {
      type: "xavier"
    }
  }
}
layer {
  name: "fire3/relu_expand1x1"
  type: "ReLU"
  bottom: "fire3/expand1x1"
  top: "fire3/expand1x1"
}
layer {
  name: "fire3/expand3x3"
  type: "Convolution"
  bottom: "fire3/squeeze1x1"
  top: "fire3/expand3x3"
  convolution_param {
    num_output: 64
    pad: 1
    kernel_size: 3
    weight_filler {
      type: "xavier"
    }
  }
}
layer {
  name: "fire3/relu_expand3x3"
  type: "ReLU"
  bottom: "fire3/expand3x3"
  top: "fire3/expand3x3"
}
layer {
  name: "fire3/concat"
  type: "Concat"
  bottom: "fire3/expand1x1"
  bottom: "fire3/expand3x3"
  top: "fire3/concat"
}
layer {
  name: "pool3"
  type: "Pooling"
  bottom: "fire3/concat"
  top: "pool3"
  pooling_param {
    pool: MAX
    kernel_size: 3
    stride: 2
  }
}
layer {
  name: "fire4/squeeze1x1"
  type: "Convolution"
  bottom: "pool3"
  top: "fire4/squeeze1x1"
  convolution_param {
    num_output: 32
    kernel_size: 1
    weight_filler {
      type: "xavier"
    }
  }
}
layer {
  name: "fire4/relu_squeeze1x1"
  type: "ReLU"
  bottom: "fire4/squeeze1x1"
  top: "fire4/squeeze1x1"
}
layer {
  name: "fire4/expand1x1"
  type: "Convolution"
  bottom: "fire4/squeeze1x1"
  top: "fire4/expand1x1"
  convolution_param {
    num_output: 128
    kernel_size: 1
    weight_filler {
      type: "xavier"
    }
  }
}
layer {
  name: "fire4/relu_expand1x1"
  type: "ReLU"
  bottom: "fire4/expand1x1"
  top: "fire4/expand1x1"
}
layer {
  name: "fire4/expand3x3"
  type: "Convolution"
  bottom: "fire4/squeeze1x1"
  top: "fire4/expand3x3"
  convolution_param {
    num_output: 128
    pad: 1
    kernel_size: 3
    weight_filler {
      type: "xavier"
    }
  }
}
layer {
  name: "fire4/relu_expand3x3"
  type: "ReLU"
  bottom: "fire4/expand3x3"
  top: "fire4/expand3x3"
}
layer {
  name: "fire4/concat"
  type: "Concat"
  bottom: "fire4/expand1x1"
  bottom: "fire4/expand3x3"
  top: "fire4/concat"
}
layer {
  name: "fire5/squeeze1x1"
  type: "Convolution"
  bottom: "fire4/concat"
  top: "fire5/squeeze1x1"
  convolution_param {
    num_output: 32
    kernel_size: 1
    weight_filler {
      type: "xavier"
    }
  }
}
layer {
  name: "fire5/relu_squeeze1x1"
  type: "ReLU"
  bottom: "fire5/squeeze1x1"
  top: "fire5/squeeze1x1"
}
layer {
  name: "fire5/expand1x1"
  type: "Convolution"
  bottom: "fire5/squeeze1x1"
  top: "fire5/expand1x1"
  convolution_param {
    num_output: 128
    kernel_size: 1
    weight_filler {
      type: "xavier"
    }
  }
}
layer {
  name: "fire5/relu_expand1x1"
  type: "ReLU"
  bottom: "fire5/expand1x1"
  top: "fire5/expand1x1"
}
layer {
  name: "fire5/expand3x3"
  type: "Convolution"
  bottom: "fire5/squeeze1x1"
  top: "fire5/expand3x3"
  convolution_param {
    num_output: 128
    pad: 1
    kernel_size: 3
    weight_filler {
      type: "xavier"
    }
  }
}
layer {
  name: "fire5/relu_expand3x3"
  type: "ReLU"
  bottom: "fire5/expand3x3"
  top: "fire5/expand3x3"
}
layer {
  name: "fire5/concat"
  type: "Concat"
  bottom: "fire5/expand1x1"
  bottom: "fire5/expand3x3"
  top: "fire5/concat"
}
layer {
  name: "pool5"
  type: "Pooling"
  bottom: "fire5/concat"
  top: "pool5"
  pooling_param {
    pool: MAX
    kernel_size: 3
    stride: 2
  }
}
layer {
  name: "fire6/squeeze1x1"
  type: "Convolution"
  bottom: "pool5"
  top: "fire6/squeeze1x1"
  convolution_param {
    num_output: 48
    kernel_size: 1
    weight_filler {
      type: "xavier"
    }
  }
}
layer {
  name: "fire6/relu_squeeze1x1"
  type: "ReLU"
  bottom: "fire6/squeeze1x1"
  top: "fire6/squeeze1x1"
}
layer {
  name: "fire6/expand1x1"
  type: "Convolution"
  bottom: "fire6/squeeze1x1"
  top: "fire6/expand1x1"
  convolution_param {
    num_output: 192
    kernel_size: 1
    weight_filler {
      type: "xavier"
    }
  }
}
layer {
  name: "fire6/relu_expand1x1"
  type: "ReLU"
  bottom: "fire6/expand1x1"
  top: "fire6/expand1x1"
}
layer {
  name: "fire6/expand3x3"
  type: "Convolution"
  bottom: "fire6/squeeze1x1"
  top: "fire6/expand3x3"
  convolution_param {
    num_output: 192
    pad: 1
    kernel_size: 3
    weight_filler {
      type: "xavier"
    }
  }
}
layer {
  name: "fire6/relu_expand3x3"
  type: "ReLU"
  bottom: "fire6/expand3x3"
  top: "fire6/expand3x3"
}
layer {
  name: "fire6/concat"
  type: "Concat"
  bottom: "fire6/expand1x1"
  bottom: "fire6/expand3x3"
  top: "fire6/concat"
}
layer {
  name: "fire7/squeeze1x1"
  type: "Convolution"
  bottom: "fire6/concat"
  top: "fire7/squeeze1x1"
  convolution_param {
    num_output: 48
    kernel_size: 1
    weight_filler {
      type: "xavier"
    }
  }
}
layer {
  name: "fire7/relu_squeeze1x1"
  type: "ReLU"
  bottom: "fire7/squeeze1x1"
  top: "fire7/squeeze1x1"
}
layer {
  name: "fire7/expand1x1"
  type: "Convolution"
  bottom: "fire7/squeeze1x1"
  top: "fire7/expand1x1"
  convolution_param {
    num_output: 192
    kernel_size: 1
    weight_filler {
      type: "xavier"
    }
  }
}
layer {
  name: "fire7/relu_expand1x1"
  type: "ReLU"
  bottom: "fire7/expand1x1"
  top: "fire7/expand1x1"
}
layer {
  name: "fire7/expand3x3"
  type: "Convolution"
  bottom: "fire7/squeeze1x1"
  top: "fire7/expand3x3"
  convolution_param {
    num_output: 192
    pad: 1
    kernel_size: 3
    weight_filler {
      type: "xavier"
    }
  }
}
layer {
  name: "fire7/relu_expand3x3"
  type: "ReLU"
  bottom: "fire7/expand3x3"
  top: "fire7/expand3x3"
}
layer {
  name: "fire7/concat"
  type: "Concat"
  bottom: "fire7/expand1x1"
  bottom: "fire7/expand3x3"
  top: "fire7/concat"
}
layer {
  name: "fire8/squeeze1x1"
  type: "Convolution"
  bottom: "fire7/concat"
  top: "fire8/squeeze1x1"
  convolution_param {
    num_output: 64
    kernel_size: 1
    weight_filler {
      type: "xavier"
    }
  }
}
layer {
  name: "fire8/relu_squeeze1x1"
  type: "ReLU"
  bottom: "fire8/squeeze1x1"
  top: "fire8/squeeze1x1"
}
layer {
  name: "fire8/expand1x1"
  type: "Convolution"
  bottom: "fire8/squeeze1x1"
  top: "fire8/expand1x1"
  convolution_param {
    num_output: 256
    kernel_size: 1
    weight_filler {
      type: "xavier"
    }
  }
}
layer {
  name: "fire8/relu_expand1x1"
  type: "ReLU"
  bottom: "fire8/expand1x1"
  top: "fire8/expand1x1"
}
layer {
  name: "fire8/expand3x3"
  type: "Convolution"
  bottom: "fire8/squeeze1x1"
  top: "fire8/expand3x3"
  convolution_param {
    num_output: 256
    pad: 1
    kernel_size: 3
    weight_filler {
      type: "xavier"
    }
  }
}
layer {
  name: "fire8/relu_expand3x3"
  type: "ReLU"
  bottom: "fire8/expand3x3"
  top: "fire8/expand3x3"
}
layer {
  name: "fire8/concat"
  type: "Concat"
  bottom: "fire8/expand1x1"
  bottom: "fire8/expand3x3"
  top: "fire8/concat"
}
layer {
  name: "fire9/squeeze1x1"
  type: "Convolution"
  bottom: "fire8/concat"
  top: "fire9/squeeze1x1"
  convolution_param {
    num_output: 64
    kernel_size: 1
    weight_filler {
      type: "xavier"
    }
  }
}
layer {
  name: "fire9/relu_squeeze1x1"
  type: "ReLU"
  bottom: "fire9/squeeze1x1"
  top: "fire9/squeeze1x1"
}
layer {
  name: "fire9/expand1x1"
  type: "Convolution"
  bottom: "fire9/squeeze1x1"
  top: "fire9/expand1x1"
  convolution_param {
    num_output: 256
    kernel_size: 1
    weight_filler {
      type: "xavier"
    }
  }
}
layer {
  name: "fire9/relu_expand1x1"
  type: "ReLU"
  bottom: "fire9/expand1x1"
  top: "fire9/expand1x1"
}
layer {
  name: "fire9/expand3x3"
  type: "Convolution"
  bottom: "fire9/squeeze1x1"
  top: "fire9/expand3x3"
  convolution_param {
    num_output: 256
    pad: 1
    kernel_size: 3
    weight_filler {
      type: "xavier"
    }
  }
}
layer {
  name: "fire9/relu_expand3x3"
  type: "ReLU"
  bottom: "fire9/expand3x3"
  top: "fire9/expand3x3"
}
layer {
  name: "fire9/concat"
  type: "Concat"
  bottom: "fire9/expand1x1"
  bottom: "fire9/expand3x3"
  top: "fire9/concat"
}
layer {
  name: "drop9"
  type: "Dropout"
  bottom: "fire9/concat"
  top: "fire9/concat"
  dropout_param {
    dropout_ratio: 0.5
  }
}
layer {
  name: "pool_"
  type: "Pooling"
  bottom: "fire9/concat"
  top: "pool_"
  pooling_param {
    pool: AVE
    global_pooling: true
  }
}
layer {
  name: "fc"
  type: "InnerProduct"
  bottom: "pool_"
  top: "pool10"
  param {
    lr_mult: 1
    decay_mult: 1
  }
  param {
    lr_mult: 2
    decay_mult: 0
  }
  inner_product_param {
    num_output: 10575
    weight_filler {
      type: "xavier"
    }
    bias_filler {
      type: "constant"
      value: 0
    }
  }
}
layer {
  name: "loss"
  type: "SoftmaxWithLoss"
  bottom: "pool10"
  bottom: "label"
  top: "loss"
}
layer {
  name: "accuracy"
  type: "Accuracy"
  bottom: "pool10"
  bottom: "label"
  top: "accuracy"
}
layer {
  name: "accuracy_top5"
  type: "Accuracy"
  bottom: "pool10"
  bottom: "label"
  top: "accuracy_top5"
  accuracy_param {
    top_k: 5
  }
}
I0427 16:11:02.475292 29605 layer_factory.hpp:77] Creating layer data
I0427 16:11:02.475317 29605 net.cpp:84] Creating Layer data
I0427 16:11:02.475322 29605 net.cpp:380] data -> data
I0427 16:11:02.475332 29605 net.cpp:380] data -> label
I0427 16:11:02.475353 29605 image_data_layer.cpp:38] Opening file /home/hzh/Recognition_face_train/dataset_path/lfw_label.txt
I0427 16:11:02.481138 29605 image_data_layer.cpp:53] Shuffling data
I0427 16:11:02.482583 29605 image_data_layer.cpp:63] A total of 13233 images.
I0427 16:11:02.484066 29605 image_data_layer.cpp:90] output data size: 256,3,250,250
I0427 16:11:03.026365 29605 net.cpp:122] Setting up data
I0427 16:11:03.026409 29605 net.cpp:129] Top shape: 256 3 250 250 (48000000)
I0427 16:11:03.026417 29605 net.cpp:129] Top shape: 256 (256)
I0427 16:11:03.026422 29605 net.cpp:137] Memory required for data: 192001024
I0427 16:11:03.026430 29605 layer_factory.hpp:77] Creating layer label_data_1_split
I0427 16:11:03.026448 29605 net.cpp:84] Creating Layer label_data_1_split
I0427 16:11:03.026453 29605 net.cpp:406] label_data_1_split <- label
I0427 16:11:03.026463 29605 net.cpp:380] label_data_1_split -> label_data_1_split_0
I0427 16:11:03.026475 29605 net.cpp:380] label_data_1_split -> label_data_1_split_1
I0427 16:11:03.026484 29605 net.cpp:380] label_data_1_split -> label_data_1_split_2
I0427 16:11:03.026574 29605 net.cpp:122] Setting up label_data_1_split
I0427 16:11:03.026583 29605 net.cpp:129] Top shape: 256 (256)
I0427 16:11:03.026588 29605 net.cpp:129] Top shape: 256 (256)
I0427 16:11:03.026594 29605 net.cpp:129] Top shape: 256 (256)
I0427 16:11:03.026598 29605 net.cpp:137] Memory required for data: 192004096
I0427 16:11:03.026602 29605 layer_factory.hpp:77] Creating layer conv1
I0427 16:11:03.026617 29605 net.cpp:84] Creating Layer conv1
I0427 16:11:03.026621 29605 net.cpp:406] conv1 <- data
I0427 16:11:03.026629 29605 net.cpp:380] conv1 -> conv1
I0427 16:11:03.030057 29605 net.cpp:122] Setting up conv1
I0427 16:11:03.030076 29605 net.cpp:129] Top shape: 256 64 124 124 (251920384)
I0427 16:11:03.030081 29605 net.cpp:137] Memory required for data: 1199685632
I0427 16:11:03.030099 29605 layer_factory.hpp:77] Creating layer relu_conv1
I0427 16:11:03.030109 29605 net.cpp:84] Creating Layer relu_conv1
I0427 16:11:03.030114 29605 net.cpp:406] relu_conv1 <- conv1
I0427 16:11:03.030123 29605 net.cpp:367] relu_conv1 -> conv1 (in-place)
I0427 16:11:03.030732 29605 net.cpp:122] Setting up relu_conv1
I0427 16:11:03.030746 29605 net.cpp:129] Top shape: 256 64 124 124 (251920384)
I0427 16:11:03.030751 29605 net.cpp:137] Memory required for data: 2207367168
I0427 16:11:03.030756 29605 layer_factory.hpp:77] Creating layer pool1
I0427 16:11:03.030768 29605 net.cpp:84] Creating Layer pool1
I0427 16:11:03.030773 29605 net.cpp:406] pool1 <- conv1
I0427 16:11:03.030781 29605 net.cpp:380] pool1 -> pool1
I0427 16:11:03.030844 29605 net.cpp:122] Setting up pool1
I0427 16:11:03.030853 29605 net.cpp:129] Top shape: 256 64 62 62 (62980096)
I0427 16:11:03.030856 29605 net.cpp:137] Memory required for data: 2459287552
I0427 16:11:03.030861 29605 layer_factory.hpp:77] Creating layer fire2/squeeze1x1
I0427 16:11:03.030870 29605 net.cpp:84] Creating Layer fire2/squeeze1x1
I0427 16:11:03.030875 29605 net.cpp:406] fire2/squeeze1x1 <- pool1
I0427 16:11:03.030884 29605 net.cpp:380] fire2/squeeze1x1 -> fire2/squeeze1x1
I0427 16:11:03.048741 29605 net.cpp:122] Setting up fire2/squeeze1x1
I0427 16:11:03.048761 29605 net.cpp:129] Top shape: 256 16 62 62 (15745024)
I0427 16:11:03.048768 29605 net.cpp:137] Memory required for data: 2522267648
I0427 16:11:03.048779 29605 layer_factory.hpp:77] Creating layer fire2/relu_squeeze1x1
I0427 16:11:03.048789 29605 net.cpp:84] Creating Layer fire2/relu_squeeze1x1
I0427 16:11:03.048794 29605 net.cpp:406] fire2/relu_squeeze1x1 <- fire2/squeeze1x1
I0427 16:11:03.048800 29605 net.cpp:367] fire2/relu_squeeze1x1 -> fire2/squeeze1x1 (in-place)
I0427 16:11:03.049398 29605 net.cpp:122] Setting up fire2/relu_squeeze1x1
I0427 16:11:03.049412 29605 net.cpp:129] Top shape: 256 16 62 62 (15745024)
I0427 16:11:03.049417 29605 net.cpp:137] Memory required for data: 2585247744
I0427 16:11:03.049422 29605 layer_factory.hpp:77] Creating layer fire2/squeeze1x1_fire2/relu_squeeze1x1_0_split
I0427 16:11:03.049429 29605 net.cpp:84] Creating Layer fire2/squeeze1x1_fire2/relu_squeeze1x1_0_split
I0427 16:11:03.049440 29605 net.cpp:406] fire2/squeeze1x1_fire2/relu_squeeze1x1_0_split <- fire2/squeeze1x1
I0427 16:11:03.049474 29605 net.cpp:380] fire2/squeeze1x1_fire2/relu_squeeze1x1_0_split -> fire2/squeeze1x1_fire2/relu_squeeze1x1_0_split_0
I0427 16:11:03.049485 29605 net.cpp:380] fire2/squeeze1x1_fire2/relu_squeeze1x1_0_split -> fire2/squeeze1x1_fire2/relu_squeeze1x1_0_split_1
I0427 16:11:03.049549 29605 net.cpp:122] Setting up fire2/squeeze1x1_fire2/relu_squeeze1x1_0_split
I0427 16:11:03.049558 29605 net.cpp:129] Top shape: 256 16 62 62 (15745024)
I0427 16:11:03.049564 29605 net.cpp:129] Top shape: 256 16 62 62 (15745024)
I0427 16:11:03.049568 29605 net.cpp:137] Memory required for data: 2711207936
I0427 16:11:03.049572 29605 layer_factory.hpp:77] Creating layer fire2/expand1x1
I0427 16:11:03.049584 29605 net.cpp:84] Creating Layer fire2/expand1x1
I0427 16:11:03.049589 29605 net.cpp:406] fire2/expand1x1 <- fire2/squeeze1x1_fire2/relu_squeeze1x1_0_split_0
I0427 16:11:03.049597 29605 net.cpp:380] fire2/expand1x1 -> fire2/expand1x1
I0427 16:11:03.052225 29605 net.cpp:122] Setting up fire2/expand1x1
I0427 16:11:03.052244 29605 net.cpp:129] Top shape: 256 64 62 62 (62980096)
I0427 16:11:03.052249 29605 net.cpp:137] Memory required for data: 2963128320
I0427 16:11:03.052261 29605 layer_factory.hpp:77] Creating layer fire2/relu_expand1x1
I0427 16:11:03.052270 29605 net.cpp:84] Creating Layer fire2/relu_expand1x1
I0427 16:11:03.052275 29605 net.cpp:406] fire2/relu_expand1x1 <- fire2/expand1x1
I0427 16:11:03.052285 29605 net.cpp:367] fire2/relu_expand1x1 -> fire2/expand1x1 (in-place)
I0427 16:11:03.053311 29605 net.cpp:122] Setting up fire2/relu_expand1x1
I0427 16:11:03.053328 29605 net.cpp:129] Top shape: 256 64 62 62 (62980096)
I0427 16:11:03.053333 29605 net.cpp:137] Memory required for data: 3215048704
I0427 16:11:03.053339 29605 layer_factory.hpp:77] Creating layer fire2/expand3x3
I0427 16:11:03.053352 29605 net.cpp:84] Creating Layer fire2/expand3x3
I0427 16:11:03.053357 29605 net.cpp:406] fire2/expand3x3 <- fire2/squeeze1x1_fire2/relu_squeeze1x1_0_split_1
I0427 16:11:03.053367 29605 net.cpp:380] fire2/expand3x3 -> fire2/expand3x3
I0427 16:11:03.056054 29605 net.cpp:122] Setting up fire2/expand3x3
I0427 16:11:03.056072 29605 net.cpp:129] Top shape: 256 64 62 62 (62980096)
I0427 16:11:03.056077 29605 net.cpp:137] Memory required for data: 3466969088
I0427 16:11:03.056087 29605 layer_factory.hpp:77] Creating layer fire2/relu_expand3x3
I0427 16:11:03.056097 29605 net.cpp:84] Creating Layer fire2/relu_expand3x3
I0427 16:11:03.056102 29605 net.cpp:406] fire2/relu_expand3x3 <- fire2/expand3x3
I0427 16:11:03.056109 29605 net.cpp:367] fire2/relu_expand3x3 -> fire2/expand3x3 (in-place)
I0427 16:11:03.056717 29605 net.cpp:122] Setting up fire2/relu_expand3x3
I0427 16:11:03.056732 29605 net.cpp:129] Top shape: 256 64 62 62 (62980096)
I0427 16:11:03.056736 29605 net.cpp:137] Memory required for data: 3718889472
I0427 16:11:03.056741 29605 layer_factory.hpp:77] Creating layer fire2/concat
I0427 16:11:03.056751 29605 net.cpp:84] Creating Layer fire2/concat
I0427 16:11:03.056756 29605 net.cpp:406] fire2/concat <- fire2/expand1x1
I0427 16:11:03.056762 29605 net.cpp:406] fire2/concat <- fire2/expand3x3
I0427 16:11:03.056768 29605 net.cpp:380] fire2/concat -> fire2/concat
I0427 16:11:03.056816 29605 net.cpp:122] Setting up fire2/concat
I0427 16:11:03.056825 29605 net.cpp:129] Top shape: 256 128 62 62 (125960192)
I0427 16:11:03.056829 29605 net.cpp:137] Memory required for data: 4222730240
I0427 16:11:03.056833 29605 layer_factory.hpp:77] Creating layer fire3/squeeze1x1
I0427 16:11:03.056844 29605 net.cpp:84] Creating Layer fire3/squeeze1x1
I0427 16:11:03.056849 29605 net.cpp:406] fire3/squeeze1x1 <- fire2/concat
I0427 16:11:03.056857 29605 net.cpp:380] fire3/squeeze1x1 -> fire3/squeeze1x1
I0427 16:11:03.059454 29605 net.cpp:122] Setting up fire3/squeeze1x1
I0427 16:11:03.059473 29605 net.cpp:129] Top shape: 256 16 62 62 (15745024)
I0427 16:11:03.059478 29605 net.cpp:137] Memory required for data: 4285710336
I0427 16:11:03.059497 29605 layer_factory.hpp:77] Creating layer fire3/relu_squeeze1x1
I0427 16:11:03.059520 29605 net.cpp:84] Creating Layer fire3/relu_squeeze1x1
I0427 16:11:03.059526 29605 net.cpp:406] fire3/relu_squeeze1x1 <- fire3/squeeze1x1
I0427 16:11:03.059540 29605 net.cpp:367] fire3/relu_squeeze1x1 -> fire3/squeeze1x1 (in-place)
I0427 16:11:03.060564 29605 net.cpp:122] Setting up fire3/relu_squeeze1x1
I0427 16:11:03.060581 29605 net.cpp:129] Top shape: 256 16 62 62 (15745024)
I0427 16:11:03.060586 29605 net.cpp:137] Memory required for data: 4348690432
I0427 16:11:03.060591 29605 layer_factory.hpp:77] Creating layer fire3/squeeze1x1_fire3/relu_squeeze1x1_0_split
I0427 16:11:03.060598 29605 net.cpp:84] Creating Layer fire3/squeeze1x1_fire3/relu_squeeze1x1_0_split
I0427 16:11:03.060603 29605 net.cpp:406] fire3/squeeze1x1_fire3/relu_squeeze1x1_0_split <- fire3/squeeze1x1
I0427 16:11:03.060611 29605 net.cpp:380] fire3/squeeze1x1_fire3/relu_squeeze1x1_0_split -> fire3/squeeze1x1_fire3/relu_squeeze1x1_0_split_0
I0427 16:11:03.060621 29605 net.cpp:380] fire3/squeeze1x1_fire3/relu_squeeze1x1_0_split -> fire3/squeeze1x1_fire3/relu_squeeze1x1_0_split_1
I0427 16:11:03.060691 29605 net.cpp:122] Setting up fire3/squeeze1x1_fire3/relu_squeeze1x1_0_split
I0427 16:11:03.060701 29605 net.cpp:129] Top shape: 256 16 62 62 (15745024)
I0427 16:11:03.060706 29605 net.cpp:129] Top shape: 256 16 62 62 (15745024)
I0427 16:11:03.060710 29605 net.cpp:137] Memory required for data: 4474650624
I0427 16:11:03.060714 29605 layer_factory.hpp:77] Creating layer fire3/expand1x1
I0427 16:11:03.060726 29605 net.cpp:84] Creating Layer fire3/expand1x1
I0427 16:11:03.060731 29605 net.cpp:406] fire3/expand1x1 <- fire3/squeeze1x1_fire3/relu_squeeze1x1_0_split_0
I0427 16:11:03.060739 29605 net.cpp:380] fire3/expand1x1 -> fire3/expand1x1
I0427 16:11:03.063354 29605 net.cpp:122] Setting up fire3/expand1x1
I0427 16:11:03.063372 29605 net.cpp:129] Top shape: 256 64 62 62 (62980096)
I0427 16:11:03.063377 29605 net.cpp:137] Memory required for data: 4726571008
I0427 16:11:03.063386 29605 layer_factory.hpp:77] Creating layer fire3/relu_expand1x1
I0427 16:11:03.063396 29605 net.cpp:84] Creating Layer fire3/relu_expand1x1
I0427 16:11:03.063401 29605 net.cpp:406] fire3/relu_expand1x1 <- fire3/expand1x1
I0427 16:11:03.063408 29605 net.cpp:367] fire3/relu_expand1x1 -> fire3/expand1x1 (in-place)
I0427 16:11:03.064424 29605 net.cpp:122] Setting up fire3/relu_expand1x1
I0427 16:11:03.064442 29605 net.cpp:129] Top shape: 256 64 62 62 (62980096)
I0427 16:11:03.064447 29605 net.cpp:137] Memory required for data: 4978491392
I0427 16:11:03.064452 29605 layer_factory.hpp:77] Creating layer fire3/expand3x3
I0427 16:11:03.064462 29605 net.cpp:84] Creating Layer fire3/expand3x3
I0427 16:11:03.064468 29605 net.cpp:406] fire3/expand3x3 <- fire3/squeeze1x1_fire3/relu_squeeze1x1_0_split_1
I0427 16:11:03.064477 29605 net.cpp:380] fire3/expand3x3 -> fire3/expand3x3
I0427 16:11:03.067160 29605 net.cpp:122] Setting up fire3/expand3x3
I0427 16:11:03.067179 29605 net.cpp:129] Top shape: 256 64 62 62 (62980096)
I0427 16:11:03.067184 29605 net.cpp:137] Memory required for data: 5230411776
I0427 16:11:03.067193 29605 layer_factory.hpp:77] Creating layer fire3/relu_expand3x3
I0427 16:11:03.067203 29605 net.cpp:84] Creating Layer fire3/relu_expand3x3
I0427 16:11:03.067209 29605 net.cpp:406] fire3/relu_expand3x3 <- fire3/expand3x3
I0427 16:11:03.067216 29605 net.cpp:367] fire3/relu_expand3x3 -> fire3/expand3x3 (in-place)
I0427 16:11:03.067800 29605 net.cpp:122] Setting up fire3/relu_expand3x3
I0427 16:11:03.067814 29605 net.cpp:129] Top shape: 256 64 62 62 (62980096)
I0427 16:11:03.067819 29605 net.cpp:137] Memory required for data: 5482332160
I0427 16:11:03.067823 29605 layer_factory.hpp:77] Creating layer fire3/concat
I0427 16:11:03.067833 29605 net.cpp:84] Creating Layer fire3/concat
I0427 16:11:03.067838 29605 net.cpp:406] fire3/concat <- fire3/expand1x1
I0427 16:11:03.067844 29605 net.cpp:406] fire3/concat <- fire3/expand3x3
I0427 16:11:03.067850 29605 net.cpp:380] fire3/concat -> fire3/concat
I0427 16:11:03.067900 29605 net.cpp:122] Setting up fire3/concat
I0427 16:11:03.067922 29605 net.cpp:129] Top shape: 256 128 62 62 (125960192)
I0427 16:11:03.067927 29605 net.cpp:137] Memory required for data: 5986172928
I0427 16:11:03.067931 29605 layer_factory.hpp:77] Creating layer pool3
I0427 16:11:03.067939 29605 net.cpp:84] Creating Layer pool3
I0427 16:11:03.067944 29605 net.cpp:406] pool3 <- fire3/concat
I0427 16:11:03.067952 29605 net.cpp:380] pool3 -> pool3
I0427 16:11:03.068009 29605 net.cpp:122] Setting up pool3
I0427 16:11:03.068017 29605 net.cpp:129] Top shape: 256 128 31 31 (31490048)
I0427 16:11:03.068022 29605 net.cpp:137] Memory required for data: 6112133120
I0427 16:11:03.068025 29605 layer_factory.hpp:77] Creating layer fire4/squeeze1x1
I0427 16:11:03.068039 29605 net.cpp:84] Creating Layer fire4/squeeze1x1
I0427 16:11:03.068043 29605 net.cpp:406] fire4/squeeze1x1 <- pool3
I0427 16:11:03.068050 29605 net.cpp:380] fire4/squeeze1x1 -> fire4/squeeze1x1
I0427 16:11:03.070834 29605 net.cpp:122] Setting up fire4/squeeze1x1
I0427 16:11:03.070852 29605 net.cpp:129] Top shape: 256 32 31 31 (7872512)
I0427 16:11:03.070858 29605 net.cpp:137] Memory required for data: 6143623168
I0427 16:11:03.070866 29605 layer_factory.hpp:77] Creating layer fire4/relu_squeeze1x1
I0427 16:11:03.070874 29605 net.cpp:84] Creating Layer fire4/relu_squeeze1x1
I0427 16:11:03.070880 29605 net.cpp:406] fire4/relu_squeeze1x1 <- fire4/squeeze1x1
I0427 16:11:03.070889 29605 net.cpp:367] fire4/relu_squeeze1x1 -> fire4/squeeze1x1 (in-place)
I0427 16:11:03.071473 29605 net.cpp:122] Setting up fire4/relu_squeeze1x1
I0427 16:11:03.071485 29605 net.cpp:129] Top shape: 256 32 31 31 (7872512)
I0427 16:11:03.071491 29605 net.cpp:137] Memory required for data: 6175113216
I0427 16:11:03.071494 29605 layer_factory.hpp:77] Creating layer fire4/squeeze1x1_fire4/relu_squeeze1x1_0_split
I0427 16:11:03.071503 29605 net.cpp:84] Creating Layer fire4/squeeze1x1_fire4/relu_squeeze1x1_0_split
I0427 16:11:03.071508 29605 net.cpp:406] fire4/squeeze1x1_fire4/relu_squeeze1x1_0_split <- fire4/squeeze1x1
I0427 16:11:03.071516 29605 net.cpp:380] fire4/squeeze1x1_fire4/relu_squeeze1x1_0_split -> fire4/squeeze1x1_fire4/relu_squeeze1x1_0_split_0
I0427 16:11:03.071523 29605 net.cpp:380] fire4/squeeze1x1_fire4/relu_squeeze1x1_0_split -> fire4/squeeze1x1_fire4/relu_squeeze1x1_0_split_1
I0427 16:11:03.071588 29605 net.cpp:122] Setting up fire4/squeeze1x1_fire4/relu_squeeze1x1_0_split
I0427 16:11:03.071596 29605 net.cpp:129] Top shape: 256 32 31 31 (7872512)
I0427 16:11:03.071601 29605 net.cpp:129] Top shape: 256 32 31 31 (7872512)
I0427 16:11:03.071605 29605 net.cpp:137] Memory required for data: 6238093312
I0427 16:11:03.071609 29605 layer_factory.hpp:77] Creating layer fire4/expand1x1
I0427 16:11:03.071620 29605 net.cpp:84] Creating Layer fire4/expand1x1
I0427 16:11:03.071625 29605 net.cpp:406] fire4/expand1x1 <- fire4/squeeze1x1_fire4/relu_squeeze1x1_0_split_0
I0427 16:11:03.071632 29605 net.cpp:380] fire4/expand1x1 -> fire4/expand1x1
I0427 16:11:03.074291 29605 net.cpp:122] Setting up fire4/expand1x1
I0427 16:11:03.074312 29605 net.cpp:129] Top shape: 256 128 31 31 (31490048)
I0427 16:11:03.074317 29605 net.cpp:137] Memory required for data: 6364053504
I0427 16:11:03.074331 29605 layer_factory.hpp:77] Creating layer fire4/relu_expand1x1
I0427 16:11:03.074338 29605 net.cpp:84] Creating Layer fire4/relu_expand1x1
I0427 16:11:03.074343 29605 net.cpp:406] fire4/relu_expand1x1 <- fire4/expand1x1
I0427 16:11:03.074352 29605 net.cpp:367] fire4/relu_expand1x1 -> fire4/expand1x1 (in-place)
I0427 16:11:03.075387 29605 net.cpp:122] Setting up fire4/relu_expand1x1
I0427 16:11:03.075404 29605 net.cpp:129] Top shape: 256 128 31 31 (31490048)
I0427 16:11:03.075409 29605 net.cpp:137] Memory required for data: 6490013696
I0427 16:11:03.075414 29605 layer_factory.hpp:77] Creating layer fire4/expand3x3
I0427 16:11:03.075426 29605 net.cpp:84] Creating Layer fire4/expand3x3
I0427 16:11:03.075433 29605 net.cpp:406] fire4/expand3x3 <- fire4/squeeze1x1_fire4/relu_squeeze1x1_0_split_1
I0427 16:11:03.075445 29605 net.cpp:380] fire4/expand3x3 -> fire4/expand3x3
I0427 16:11:03.078387 29605 net.cpp:122] Setting up fire4/expand3x3
I0427 16:11:03.078404 29605 net.cpp:129] Top shape: 256 128 31 31 (31490048)
I0427 16:11:03.078409 29605 net.cpp:137] Memory required for data: 6615973888
I0427 16:11:03.078419 29605 layer_factory.hpp:77] Creating layer fire4/relu_expand3x3
I0427 16:11:03.078428 29605 net.cpp:84] Creating Layer fire4/relu_expand3x3
I0427 16:11:03.078433 29605 net.cpp:406] fire4/relu_expand3x3 <- fire4/expand3x3
I0427 16:11:03.078444 29605 net.cpp:367] fire4/relu_expand3x3 -> fire4/expand3x3 (in-place)
I0427 16:11:03.079030 29605 net.cpp:122] Setting up fire4/relu_expand3x3
I0427 16:11:03.079044 29605 net.cpp:129] Top shape: 256 128 31 31 (31490048)
I0427 16:11:03.079048 29605 net.cpp:137] Memory required for data: 6741934080
I0427 16:11:03.079053 29605 layer_factory.hpp:77] Creating layer fire4/concat
I0427 16:11:03.079061 29605 net.cpp:84] Creating Layer fire4/concat
I0427 16:11:03.079066 29605 net.cpp:406] fire4/concat <- fire4/expand1x1
I0427 16:11:03.079071 29605 net.cpp:406] fire4/concat <- fire4/expand3x3
I0427 16:11:03.079082 29605 net.cpp:380] fire4/concat -> fire4/concat
I0427 16:11:03.079121 29605 net.cpp:122] Setting up fire4/concat
I0427 16:11:03.079133 29605 net.cpp:129] Top shape: 256 256 31 31 (62980096)
I0427 16:11:03.079136 29605 net.cpp:137] Memory required for data: 6993854464
I0427 16:11:03.079140 29605 layer_factory.hpp:77] Creating layer fire5/squeeze1x1
I0427 16:11:03.079149 29605 net.cpp:84] Creating Layer fire5/squeeze1x1
I0427 16:11:03.079154 29605 net.cpp:406] fire5/squeeze1x1 <- fire4/concat
I0427 16:11:03.079162 29605 net.cpp:380] fire5/squeeze1x1 -> fire5/squeeze1x1
I0427 16:11:03.081846 29605 net.cpp:122] Setting up fire5/squeeze1x1
I0427 16:11:03.081866 29605 net.cpp:129] Top shape: 256 32 31 31 (7872512)
I0427 16:11:03.081871 29605 net.cpp:137] Memory required for data: 7025344512
I0427 16:11:03.081878 29605 layer_factory.hpp:77] Creating layer fire5/relu_squeeze1x1
I0427 16:11:03.081890 29605 net.cpp:84] Creating Layer fire5/relu_squeeze1x1
I0427 16:11:03.081897 29605 net.cpp:406] fire5/relu_squeeze1x1 <- fire5/squeeze1x1
I0427 16:11:03.081908 29605 net.cpp:367] fire5/relu_squeeze1x1 -> fire5/squeeze1x1 (in-place)
I0427 16:11:03.082509 29605 net.cpp:122] Setting up fire5/relu_squeeze1x1
I0427 16:11:03.082523 29605 net.cpp:129] Top shape: 256 32 31 31 (7872512)
I0427 16:11:03.082528 29605 net.cpp:137] Memory required for data: 7056834560
I0427 16:11:03.082533 29605 layer_factory.hpp:77] Creating layer fire5/squeeze1x1_fire5/relu_squeeze1x1_0_split
I0427 16:11:03.082546 29605 net.cpp:84] Creating Layer fire5/squeeze1x1_fire5/relu_squeeze1x1_0_split
I0427 16:11:03.082551 29605 net.cpp:406] fire5/squeeze1x1_fire5/relu_squeeze1x1_0_split <- fire5/squeeze1x1
I0427 16:11:03.082558 29605 net.cpp:380] fire5/squeeze1x1_fire5/relu_squeeze1x1_0_split -> fire5/squeeze1x1_fire5/relu_squeeze1x1_0_split_0
I0427 16:11:03.082566 29605 net.cpp:380] fire5/squeeze1x1_fire5/relu_squeeze1x1_0_split -> fire5/squeeze1x1_fire5/relu_squeeze1x1_0_split_1
I0427 16:11:03.082631 29605 net.cpp:122] Setting up fire5/squeeze1x1_fire5/relu_squeeze1x1_0_split
I0427 16:11:03.082639 29605 net.cpp:129] Top shape: 256 32 31 31 (7872512)
I0427 16:11:03.082645 29605 net.cpp:129] Top shape: 256 32 31 31 (7872512)
I0427 16:11:03.082648 29605 net.cpp:137] Memory required for data: 7119814656
I0427 16:11:03.082653 29605 layer_factory.hpp:77] Creating layer fire5/expand1x1
I0427 16:11:03.082664 29605 net.cpp:84] Creating Layer fire5/expand1x1
I0427 16:11:03.082669 29605 net.cpp:406] fire5/expand1x1 <- fire5/squeeze1x1_fire5/relu_squeeze1x1_0_split_0
I0427 16:11:03.082677 29605 net.cpp:380] fire5/expand1x1 -> fire5/expand1x1
I0427 16:11:03.085320 29605 net.cpp:122] Setting up fire5/expand1x1
I0427 16:11:03.085338 29605 net.cpp:129] Top shape: 256 128 31 31 (31490048)
I0427 16:11:03.085343 29605 net.cpp:137] Memory required for data: 7245774848
I0427 16:11:03.085352 29605 layer_factory.hpp:77] Creating layer fire5/relu_expand1x1
I0427 16:11:03.085367 29605 net.cpp:84] Creating Layer fire5/relu_expand1x1
I0427 16:11:03.085386 29605 net.cpp:406] fire5/relu_expand1x1 <- fire5/expand1x1
I0427 16:11:03.085393 29605 net.cpp:367] fire5/relu_expand1x1 -> fire5/expand1x1 (in-place)
I0427 16:11:03.086001 29605 net.cpp:122] Setting up fire5/relu_expand1x1
I0427 16:11:03.086014 29605 net.cpp:129] Top shape: 256 128 31 31 (31490048)
I0427 16:11:03.086019 29605 net.cpp:137] Memory required for data: 7371735040
I0427 16:11:03.086024 29605 layer_factory.hpp:77] Creating layer fire5/expand3x3
I0427 16:11:03.086035 29605 net.cpp:84] Creating Layer fire5/expand3x3
I0427 16:11:03.086041 29605 net.cpp:406] fire5/expand3x3 <- fire5/squeeze1x1_fire5/relu_squeeze1x1_0_split_1
I0427 16:11:03.086050 29605 net.cpp:380] fire5/expand3x3 -> fire5/expand3x3
I0427 16:11:03.088930 29605 net.cpp:122] Setting up fire5/expand3x3
I0427 16:11:03.088948 29605 net.cpp:129] Top shape: 256 128 31 31 (31490048)
I0427 16:11:03.088954 29605 net.cpp:137] Memory required for data: 7497695232
I0427 16:11:03.088963 29605 layer_factory.hpp:77] Creating layer fire5/relu_expand3x3
I0427 16:11:03.088973 29605 net.cpp:84] Creating Layer fire5/relu_expand3x3
I0427 16:11:03.088979 29605 net.cpp:406] fire5/relu_expand3x3 <- fire5/expand3x3
I0427 16:11:03.088986 29605 net.cpp:367] fire5/relu_expand3x3 -> fire5/expand3x3 (in-place)
I0427 16:11:03.090000 29605 net.cpp:122] Setting up fire5/relu_expand3x3
I0427 16:11:03.090018 29605 net.cpp:129] Top shape: 256 128 31 31 (31490048)
I0427 16:11:03.090023 29605 net.cpp:137] Memory required for data: 7623655424
I0427 16:11:03.090028 29605 layer_factory.hpp:77] Creating layer fire5/concat
I0427 16:11:03.090037 29605 net.cpp:84] Creating Layer fire5/concat
I0427 16:11:03.090042 29605 net.cpp:406] fire5/concat <- fire5/expand1x1
I0427 16:11:03.090049 29605 net.cpp:406] fire5/concat <- fire5/expand3x3
I0427 16:11:03.090056 29605 net.cpp:380] fire5/concat -> fire5/concat
I0427 16:11:03.090100 29605 net.cpp:122] Setting up fire5/concat
I0427 16:11:03.090108 29605 net.cpp:129] Top shape: 256 256 31 31 (62980096)
I0427 16:11:03.090113 29605 net.cpp:137] Memory required for data: 7875575808
I0427 16:11:03.090117 29605 layer_factory.hpp:77] Creating layer pool5
I0427 16:11:03.090126 29605 net.cpp:84] Creating Layer pool5
I0427 16:11:03.090129 29605 net.cpp:406] pool5 <- fire5/concat
I0427 16:11:03.090137 29605 net.cpp:380] pool5 -> pool5
I0427 16:11:03.090200 29605 net.cpp:122] Setting up pool5
I0427 16:11:03.090209 29605 net.cpp:129] Top shape: 256 256 15 15 (14745600)
I0427 16:11:03.090214 29605 net.cpp:137] Memory required for data: 7934558208
I0427 16:11:03.090217 29605 layer_factory.hpp:77] Creating layer fire6/squeeze1x1
I0427 16:11:03.090229 29605 net.cpp:84] Creating Layer fire6/squeeze1x1
I0427 16:11:03.090232 29605 net.cpp:406] fire6/squeeze1x1 <- pool5
I0427 16:11:03.090240 29605 net.cpp:380] fire6/squeeze1x1 -> fire6/squeeze1x1
I0427 16:11:03.092968 29605 net.cpp:122] Setting up fire6/squeeze1x1
I0427 16:11:03.092986 29605 net.cpp:129] Top shape: 256 48 15 15 (2764800)
I0427 16:11:03.092991 29605 net.cpp:137] Memory required for data: 7945617408
I0427 16:11:03.093000 29605 layer_factory.hpp:77] Creating layer fire6/relu_squeeze1x1
I0427 16:11:03.093008 29605 net.cpp:84] Creating Layer fire6/relu_squeeze1x1
I0427 16:11:03.093014 29605 net.cpp:406] fire6/relu_squeeze1x1 <- fire6/squeeze1x1
I0427 16:11:03.093022 29605 net.cpp:367] fire6/relu_squeeze1x1 -> fire6/squeeze1x1 (in-place)
I0427 16:11:03.093611 29605 net.cpp:122] Setting up fire6/relu_squeeze1x1
I0427 16:11:03.093623 29605 net.cpp:129] Top shape: 256 48 15 15 (2764800)
I0427 16:11:03.093628 29605 net.cpp:137] Memory required for data: 7956676608
I0427 16:11:03.093632 29605 layer_factory.hpp:77] Creating layer fire6/squeeze1x1_fire6/relu_squeeze1x1_0_split
I0427 16:11:03.093639 29605 net.cpp:84] Creating Layer fire6/squeeze1x1_fire6/relu_squeeze1x1_0_split
I0427 16:11:03.093644 29605 net.cpp:406] fire6/squeeze1x1_fire6/relu_squeeze1x1_0_split <- fire6/squeeze1x1
I0427 16:11:03.093657 29605 net.cpp:380] fire6/squeeze1x1_fire6/relu_squeeze1x1_0_split -> fire6/squeeze1x1_fire6/relu_squeeze1x1_0_split_0
I0427 16:11:03.093679 29605 net.cpp:380] fire6/squeeze1x1_fire6/relu_squeeze1x1_0_split -> fire6/squeeze1x1_fire6/relu_squeeze1x1_0_split_1
I0427 16:11:03.093752 29605 net.cpp:122] Setting up fire6/squeeze1x1_fire6/relu_squeeze1x1_0_split
I0427 16:11:03.093761 29605 net.cpp:129] Top shape: 256 48 15 15 (2764800)
I0427 16:11:03.093766 29605 net.cpp:129] Top shape: 256 48 15 15 (2764800)
I0427 16:11:03.093770 29605 net.cpp:137] Memory required for data: 7978795008
I0427 16:11:03.093775 29605 layer_factory.hpp:77] Creating layer fire6/expand1x1
I0427 16:11:03.093786 29605 net.cpp:84] Creating Layer fire6/expand1x1
I0427 16:11:03.093791 29605 net.cpp:406] fire6/expand1x1 <- fire6/squeeze1x1_fire6/relu_squeeze1x1_0_split_0
I0427 16:11:03.093797 29605 net.cpp:380] fire6/expand1x1 -> fire6/expand1x1
I0427 16:11:03.096498 29605 net.cpp:122] Setting up fire6/expand1x1
I0427 16:11:03.096518 29605 net.cpp:129] Top shape: 256 192 15 15 (11059200)
I0427 16:11:03.096523 29605 net.cpp:137] Memory required for data: 8023031808
I0427 16:11:03.096531 29605 layer_factory.hpp:77] Creating layer fire6/relu_expand1x1
I0427 16:11:03.096539 29605 net.cpp:84] Creating Layer fire6/relu_expand1x1
I0427 16:11:03.096545 29605 net.cpp:406] fire6/relu_expand1x1 <- fire6/expand1x1
I0427 16:11:03.096551 29605 net.cpp:367] fire6/relu_expand1x1 -> fire6/expand1x1 (in-place)
I0427 16:11:03.097149 29605 net.cpp:122] Setting up fire6/relu_expand1x1
I0427 16:11:03.097162 29605 net.cpp:129] Top shape: 256 192 15 15 (11059200)
I0427 16:11:03.097167 29605 net.cpp:137] Memory required for data: 8067268608
I0427 16:11:03.097172 29605 layer_factory.hpp:77] Creating layer fire6/expand3x3
I0427 16:11:03.097183 29605 net.cpp:84] Creating Layer fire6/expand3x3
I0427 16:11:03.097189 29605 net.cpp:406] fire6/expand3x3 <- fire6/squeeze1x1_fire6/relu_squeeze1x1_0_split_1
I0427 16:11:03.097196 29605 net.cpp:380] fire6/expand3x3 -> fire6/expand3x3
I0427 16:11:03.102327 29605 net.cpp:122] Setting up fire6/expand3x3
I0427 16:11:03.102346 29605 net.cpp:129] Top shape: 256 192 15 15 (11059200)
I0427 16:11:03.102351 29605 net.cpp:137] Memory required for data: 8111505408
I0427 16:11:03.102360 29605 layer_factory.hpp:77] Creating layer fire6/relu_expand3x3
I0427 16:11:03.102371 29605 net.cpp:84] Creating Layer fire6/relu_expand3x3
I0427 16:11:03.102376 29605 net.cpp:406] fire6/relu_expand3x3 <- fire6/expand3x3
I0427 16:11:03.102385 29605 net.cpp:367] fire6/relu_expand3x3 -> fire6/expand3x3 (in-place)
I0427 16:11:03.103428 29605 net.cpp:122] Setting up fire6/relu_expand3x3
I0427 16:11:03.103446 29605 net.cpp:129] Top shape: 256 192 15 15 (11059200)
I0427 16:11:03.103451 29605 net.cpp:137] Memory required for data: 8155742208
I0427 16:11:03.103456 29605 layer_factory.hpp:77] Creating layer fire6/concat
I0427 16:11:03.103463 29605 net.cpp:84] Creating Layer fire6/concat
I0427 16:11:03.103468 29605 net.cpp:406] fire6/concat <- fire6/expand1x1
I0427 16:11:03.103477 29605 net.cpp:406] fire6/concat <- fire6/expand3x3
I0427 16:11:03.103483 29605 net.cpp:380] fire6/concat -> fire6/concat
I0427 16:11:03.103536 29605 net.cpp:122] Setting up fire6/concat
I0427 16:11:03.103544 29605 net.cpp:129] Top shape: 256 384 15 15 (22118400)
I0427 16:11:03.103549 29605 net.cpp:137] Memory required for data: 8244215808
I0427 16:11:03.103552 29605 layer_factory.hpp:77] Creating layer fire7/squeeze1x1
I0427 16:11:03.103564 29605 net.cpp:84] Creating Layer fire7/squeeze1x1
I0427 16:11:03.103569 29605 net.cpp:406] fire7/squeeze1x1 <- fire6/concat
I0427 16:11:03.103575 29605 net.cpp:380] fire7/squeeze1x1 -> fire7/squeeze1x1
I0427 16:11:03.106375 29605 net.cpp:122] Setting up fire7/squeeze1x1
I0427 16:11:03.106393 29605 net.cpp:129] Top shape: 256 48 15 15 (2764800)
I0427 16:11:03.106398 29605 net.cpp:137] Memory required for data: 8255275008
I0427 16:11:03.106415 29605 layer_factory.hpp:77] Creating layer fire7/relu_squeeze1x1
I0427 16:11:03.106423 29605 net.cpp:84] Creating Layer fire7/relu_squeeze1x1
I0427 16:11:03.106432 29605 net.cpp:406] fire7/relu_squeeze1x1 <- fire7/squeeze1x1
I0427 16:11:03.106452 29605 net.cpp:367] fire7/relu_squeeze1x1 -> fire7/squeeze1x1 (in-place)
I0427 16:11:03.107064 29605 net.cpp:122] Setting up fire7/relu_squeeze1x1
I0427 16:11:03.107077 29605 net.cpp:129] Top shape: 256 48 15 15 (2764800)
I0427 16:11:03.107082 29605 net.cpp:137] Memory required for data: 8266334208
I0427 16:11:03.107087 29605 layer_factory.hpp:77] Creating layer fire7/squeeze1x1_fire7/relu_squeeze1x1_0_split
I0427 16:11:03.107095 29605 net.cpp:84] Creating Layer fire7/squeeze1x1_fire7/relu_squeeze1x1_0_split
I0427 16:11:03.107098 29605 net.cpp:406] fire7/squeeze1x1_fire7/relu_squeeze1x1_0_split <- fire7/squeeze1x1
I0427 16:11:03.107105 29605 net.cpp:380] fire7/squeeze1x1_fire7/relu_squeeze1x1_0_split -> fire7/squeeze1x1_fire7/relu_squeeze1x1_0_split_0
I0427 16:11:03.107116 29605 net.cpp:380] fire7/squeeze1x1_fire7/relu_squeeze1x1_0_split -> fire7/squeeze1x1_fire7/relu_squeeze1x1_0_split_1
I0427 16:11:03.107180 29605 net.cpp:122] Setting up fire7/squeeze1x1_fire7/relu_squeeze1x1_0_split
I0427 16:11:03.107188 29605 net.cpp:129] Top shape: 256 48 15 15 (2764800)
I0427 16:11:03.107193 29605 net.cpp:129] Top shape: 256 48 15 15 (2764800)
I0427 16:11:03.107197 29605 net.cpp:137] Memory required for data: 8288452608
I0427 16:11:03.107201 29605 layer_factory.hpp:77] Creating layer fire7/expand1x1
I0427 16:11:03.107213 29605 net.cpp:84] Creating Layer fire7/expand1x1
I0427 16:11:03.107218 29605 net.cpp:406] fire7/expand1x1 <- fire7/squeeze1x1_fire7/relu_squeeze1x1_0_split_0
I0427 16:11:03.107226 29605 net.cpp:380] fire7/expand1x1 -> fire7/expand1x1
I0427 16:11:03.109956 29605 net.cpp:122] Setting up fire7/expand1x1
I0427 16:11:03.109977 29605 net.cpp:129] Top shape: 256 192 15 15 (11059200)
I0427 16:11:03.109982 29605 net.cpp:137] Memory required for data: 8332689408
I0427 16:11:03.109990 29605 layer_factory.hpp:77] Creating layer fire7/relu_expand1x1
I0427 16:11:03.109998 29605 net.cpp:84] Creating Layer fire7/relu_expand1x1
I0427 16:11:03.110004 29605 net.cpp:406] fire7/relu_expand1x1 <- fire7/expand1x1
I0427 16:11:03.110011 29605 net.cpp:367] fire7/relu_expand1x1 -> fire7/expand1x1 (in-place)
I0427 16:11:03.110611 29605 net.cpp:122] Setting up fire7/relu_expand1x1
I0427 16:11:03.110626 29605 net.cpp:129] Top shape: 256 192 15 15 (11059200)
I0427 16:11:03.110631 29605 net.cpp:137] Memory required for data: 8376926208
I0427 16:11:03.110635 29605 layer_factory.hpp:77] Creating layer fire7/expand3x3
I0427 16:11:03.110646 29605 net.cpp:84] Creating Layer fire7/expand3x3
I0427 16:11:03.110651 29605 net.cpp:406] fire7/expand3x3 <- fire7/squeeze1x1_fire7/relu_squeeze1x1_0_split_1
I0427 16:11:03.110661 29605 net.cpp:380] fire7/expand3x3 -> fire7/expand3x3
I0427 16:11:03.114328 29605 net.cpp:122] Setting up fire7/expand3x3
I0427 16:11:03.114349 29605 net.cpp:129] Top shape: 256 192 15 15 (11059200)
I0427 16:11:03.114354 29605 net.cpp:137] Memory required for data: 8421163008
I0427 16:11:03.114363 29605 layer_factory.hpp:77] Creating layer fire7/relu_expand3x3
I0427 16:11:03.114372 29605 net.cpp:84] Creating Layer fire7/relu_expand3x3
I0427 16:11:03.114377 29605 net.cpp:406] fire7/relu_expand3x3 <- fire7/expand3x3
I0427 16:11:03.114383 29605 net.cpp:367] fire7/relu_expand3x3 -> fire7/expand3x3 (in-place)
I0427 16:11:03.115413 29605 net.cpp:122] Setting up fire7/relu_expand3x3
I0427 16:11:03.115432 29605 net.cpp:129] Top shape: 256 192 15 15 (11059200)
I0427 16:11:03.115435 29605 net.cpp:137] Memory required for data: 8465399808
I0427 16:11:03.115440 29605 layer_factory.hpp:77] Creating layer fire7/concat
I0427 16:11:03.115450 29605 net.cpp:84] Creating Layer fire7/concat
I0427 16:11:03.115455 29605 net.cpp:406] fire7/concat <- fire7/expand1x1
I0427 16:11:03.115463 29605 net.cpp:406] fire7/concat <- fire7/expand3x3
I0427 16:11:03.115469 29605 net.cpp:380] fire7/concat -> fire7/concat
I0427 16:11:03.115514 29605 net.cpp:122] Setting up fire7/concat
I0427 16:11:03.115523 29605 net.cpp:129] Top shape: 256 384 15 15 (22118400)
I0427 16:11:03.115531 29605 net.cpp:137] Memory required for data: 8553873408
I0427 16:11:03.115551 29605 layer_factory.hpp:77] Creating layer fire8/squeeze1x1
I0427 16:11:03.115566 29605 net.cpp:84] Creating Layer fire8/squeeze1x1
I0427 16:11:03.115571 29605 net.cpp:406] fire8/squeeze1x1 <- fire7/concat
I0427 16:11:03.115581 29605 net.cpp:380] fire8/squeeze1x1 -> fire8/squeeze1x1
I0427 16:11:03.118432 29605 net.cpp:122] Setting up fire8/squeeze1x1
I0427 16:11:03.118450 29605 net.cpp:129] Top shape: 256 64 15 15 (3686400)
I0427 16:11:03.118455 29605 net.cpp:137] Memory required for data: 8568619008
I0427 16:11:03.118464 29605 layer_factory.hpp:77] Creating layer fire8/relu_squeeze1x1
I0427 16:11:03.118476 29605 net.cpp:84] Creating Layer fire8/relu_squeeze1x1
I0427 16:11:03.118481 29605 net.cpp:406] fire8/relu_squeeze1x1 <- fire8/squeeze1x1
I0427 16:11:03.118489 29605 net.cpp:367] fire8/relu_squeeze1x1 -> fire8/squeeze1x1 (in-place)
I0427 16:11:03.119094 29605 net.cpp:122] Setting up fire8/relu_squeeze1x1
I0427 16:11:03.119108 29605 net.cpp:129] Top shape: 256 64 15 15 (3686400)
I0427 16:11:03.119113 29605 net.cpp:137] Memory required for data: 8583364608
I0427 16:11:03.119117 29605 layer_factory.hpp:77] Creating layer fire8/squeeze1x1_fire8/relu_squeeze1x1_0_split
I0427 16:11:03.119127 29605 net.cpp:84] Creating Layer fire8/squeeze1x1_fire8/relu_squeeze1x1_0_split
I0427 16:11:03.119132 29605 net.cpp:406] fire8/squeeze1x1_fire8/relu_squeeze1x1_0_split <- fire8/squeeze1x1
I0427 16:11:03.119139 29605 net.cpp:380] fire8/squeeze1x1_fire8/relu_squeeze1x1_0_split -> fire8/squeeze1x1_fire8/relu_squeeze1x1_0_split_0
I0427 16:11:03.119148 29605 net.cpp:380] fire8/squeeze1x1_fire8/relu_squeeze1x1_0_split -> fire8/squeeze1x1_fire8/relu_squeeze1x1_0_split_1
I0427 16:11:03.119217 29605 net.cpp:122] Setting up fire8/squeeze1x1_fire8/relu_squeeze1x1_0_split
I0427 16:11:03.119226 29605 net.cpp:129] Top shape: 256 64 15 15 (3686400)
I0427 16:11:03.119231 29605 net.cpp:129] Top shape: 256 64 15 15 (3686400)
I0427 16:11:03.119235 29605 net.cpp:137] Memory required for data: 8612855808
I0427 16:11:03.119240 29605 layer_factory.hpp:77] Creating layer fire8/expand1x1
I0427 16:11:03.119251 29605 net.cpp:84] Creating Layer fire8/expand1x1
I0427 16:11:03.119256 29605 net.cpp:406] fire8/expand1x1 <- fire8/squeeze1x1_fire8/relu_squeeze1x1_0_split_0
I0427 16:11:03.119262 29605 net.cpp:380] fire8/expand1x1 -> fire8/expand1x1
I0427 16:11:03.122494 29605 net.cpp:122] Setting up fire8/expand1x1
I0427 16:11:03.122512 29605 net.cpp:129] Top shape: 256 256 15 15 (14745600)
I0427 16:11:03.122519 29605 net.cpp:137] Memory required for data: 8671838208
I0427 16:11:03.122526 29605 layer_factory.hpp:77] Creating layer fire8/relu_expand1x1
I0427 16:11:03.122535 29605 net.cpp:84] Creating Layer fire8/relu_expand1x1
I0427 16:11:03.122540 29605 net.cpp:406] fire8/relu_expand1x1 <- fire8/expand1x1
I0427 16:11:03.122550 29605 net.cpp:367] fire8/relu_expand1x1 -> fire8/expand1x1 (in-place)
I0427 16:11:03.123164 29605 net.cpp:122] Setting up fire8/relu_expand1x1
I0427 16:11:03.123178 29605 net.cpp:129] Top shape: 256 256 15 15 (14745600)
I0427 16:11:03.123183 29605 net.cpp:137] Memory required for data: 8730820608
I0427 16:11:03.123188 29605 layer_factory.hpp:77] Creating layer fire8/expand3x3
I0427 16:11:03.123200 29605 net.cpp:84] Creating Layer fire8/expand3x3
I0427 16:11:03.123206 29605 net.cpp:406] fire8/expand3x3 <- fire8/squeeze1x1_fire8/relu_squeeze1x1_0_split_1
I0427 16:11:03.123216 29605 net.cpp:380] fire8/expand3x3 -> fire8/expand3x3
I0427 16:11:03.127338 29605 net.cpp:122] Setting up fire8/expand3x3
I0427 16:11:03.127358 29605 net.cpp:129] Top shape: 256 256 15 15 (14745600)
I0427 16:11:03.127363 29605 net.cpp:137] Memory required for data: 8789803008
I0427 16:11:03.127372 29605 layer_factory.hpp:77] Creating layer fire8/relu_expand3x3
I0427 16:11:03.127382 29605 net.cpp:84] Creating Layer fire8/relu_expand3x3
I0427 16:11:03.127387 29605 net.cpp:406] fire8/relu_expand3x3 <- fire8/expand3x3
I0427 16:11:03.127393 29605 net.cpp:367] fire8/relu_expand3x3 -> fire8/expand3x3 (in-place)
I0427 16:11:03.128037 29605 net.cpp:122] Setting up fire8/relu_expand3x3
I0427 16:11:03.128065 29605 net.cpp:129] Top shape: 256 256 15 15 (14745600)
I0427 16:11:03.128070 29605 net.cpp:137] Memory required for data: 8848785408
I0427 16:11:03.128075 29605 layer_factory.hpp:77] Creating layer fire8/concat
I0427 16:11:03.128082 29605 net.cpp:84] Creating Layer fire8/concat
I0427 16:11:03.128088 29605 net.cpp:406] fire8/concat <- fire8/expand1x1
I0427 16:11:03.128094 29605 net.cpp:406] fire8/concat <- fire8/expand3x3
I0427 16:11:03.128100 29605 net.cpp:380] fire8/concat -> fire8/concat
I0427 16:11:03.128151 29605 net.cpp:122] Setting up fire8/concat
I0427 16:11:03.128160 29605 net.cpp:129] Top shape: 256 512 15 15 (29491200)
I0427 16:11:03.128166 29605 net.cpp:137] Memory required for data: 8966750208
I0427 16:11:03.128170 29605 layer_factory.hpp:77] Creating layer fire9/squeeze1x1
I0427 16:11:03.128180 29605 net.cpp:84] Creating Layer fire9/squeeze1x1
I0427 16:11:03.128185 29605 net.cpp:406] fire9/squeeze1x1 <- fire8/concat
I0427 16:11:03.128192 29605 net.cpp:380] fire9/squeeze1x1 -> fire9/squeeze1x1
I0427 16:11:03.131114 29605 net.cpp:122] Setting up fire9/squeeze1x1
I0427 16:11:03.131132 29605 net.cpp:129] Top shape: 256 64 15 15 (3686400)
I0427 16:11:03.131137 29605 net.cpp:137] Memory required for data: 8981495808
I0427 16:11:03.131146 29605 layer_factory.hpp:77] Creating layer fire9/relu_squeeze1x1
I0427 16:11:03.131163 29605 net.cpp:84] Creating Layer fire9/relu_squeeze1x1
I0427 16:11:03.131170 29605 net.cpp:406] fire9/relu_squeeze1x1 <- fire9/squeeze1x1
I0427 16:11:03.131176 29605 net.cpp:367] fire9/relu_squeeze1x1 -> fire9/squeeze1x1 (in-place)
I0427 16:11:03.132199 29605 net.cpp:122] Setting up fire9/relu_squeeze1x1
I0427 16:11:03.132216 29605 net.cpp:129] Top shape: 256 64 15 15 (3686400)
I0427 16:11:03.132221 29605 net.cpp:137] Memory required for data: 8996241408
I0427 16:11:03.132226 29605 layer_factory.hpp:77] Creating layer fire9/squeeze1x1_fire9/relu_squeeze1x1_0_split
I0427 16:11:03.132235 29605 net.cpp:84] Creating Layer fire9/squeeze1x1_fire9/relu_squeeze1x1_0_split
I0427 16:11:03.132239 29605 net.cpp:406] fire9/squeeze1x1_fire9/relu_squeeze1x1_0_split <- fire9/squeeze1x1
I0427 16:11:03.132249 29605 net.cpp:380] fire9/squeeze1x1_fire9/relu_squeeze1x1_0_split -> fire9/squeeze1x1_fire9/relu_squeeze1x1_0_split_0
I0427 16:11:03.132258 29605 net.cpp:380] fire9/squeeze1x1_fire9/relu_squeeze1x1_0_split -> fire9/squeeze1x1_fire9/relu_squeeze1x1_0_split_1
I0427 16:11:03.132328 29605 net.cpp:122] Setting up fire9/squeeze1x1_fire9/relu_squeeze1x1_0_split
I0427 16:11:03.132336 29605 net.cpp:129] Top shape: 256 64 15 15 (3686400)
I0427 16:11:03.132342 29605 net.cpp:129] Top shape: 256 64 15 15 (3686400)
I0427 16:11:03.132345 29605 net.cpp:137] Memory required for data: 9025732608
I0427 16:11:03.132350 29605 layer_factory.hpp:77] Creating layer fire9/expand1x1
I0427 16:11:03.132361 29605 net.cpp:84] Creating Layer fire9/expand1x1
I0427 16:11:03.132366 29605 net.cpp:406] fire9/expand1x1 <- fire9/squeeze1x1_fire9/relu_squeeze1x1_0_split_0
I0427 16:11:03.132372 29605 net.cpp:380] fire9/expand1x1 -> fire9/expand1x1
I0427 16:11:03.135196 29605 net.cpp:122] Setting up fire9/expand1x1
I0427 16:11:03.135216 29605 net.cpp:129] Top shape: 256 256 15 15 (14745600)
I0427 16:11:03.135222 29605 net.cpp:137] Memory required for data: 9084715008
I0427 16:11:03.135231 29605 layer_factory.hpp:77] Creating layer fire9/relu_expand1x1
I0427 16:11:03.135239 29605 net.cpp:84] Creating Layer fire9/relu_expand1x1
I0427 16:11:03.135244 29605 net.cpp:406] fire9/relu_expand1x1 <- fire9/expand1x1
I0427 16:11:03.135251 29605 net.cpp:367] fire9/relu_expand1x1 -> fire9/expand1x1 (in-place)
I0427 16:11:03.136027 29605 net.cpp:122] Setting up fire9/relu_expand1x1
I0427 16:11:03.136042 29605 net.cpp:129] Top shape: 256 256 15 15 (14745600)
I0427 16:11:03.136046 29605 net.cpp:137] Memory required for data: 9143697408
I0427 16:11:03.136051 29605 layer_factory.hpp:77] Creating layer fire9/expand3x3
I0427 16:11:03.136070 29605 net.cpp:84] Creating Layer fire9/expand3x3
I0427 16:11:03.136075 29605 net.cpp:406] fire9/expand3x3 <- fire9/squeeze1x1_fire9/relu_squeeze1x1_0_split_1
I0427 16:11:03.136096 29605 net.cpp:380] fire9/expand3x3 -> fire9/expand3x3
I0427 16:11:03.140262 29605 net.cpp:122] Setting up fire9/expand3x3
I0427 16:11:03.140280 29605 net.cpp:129] Top shape: 256 256 15 15 (14745600)
I0427 16:11:03.140285 29605 net.cpp:137] Memory required for data: 9202679808
I0427 16:11:03.140295 29605 layer_factory.hpp:77] Creating layer fire9/relu_expand3x3
I0427 16:11:03.140305 29605 net.cpp:84] Creating Layer fire9/relu_expand3x3
I0427 16:11:03.140310 29605 net.cpp:406] fire9/relu_expand3x3 <- fire9/expand3x3
I0427 16:11:03.140316 29605 net.cpp:367] fire9/relu_expand3x3 -> fire9/expand3x3 (in-place)
I0427 16:11:03.140938 29605 net.cpp:122] Setting up fire9/relu_expand3x3
I0427 16:11:03.140951 29605 net.cpp:129] Top shape: 256 256 15 15 (14745600)
I0427 16:11:03.140955 29605 net.cpp:137] Memory required for data: 9261662208
I0427 16:11:03.140960 29605 layer_factory.hpp:77] Creating layer fire9/concat
I0427 16:11:03.140970 29605 net.cpp:84] Creating Layer fire9/concat
I0427 16:11:03.140975 29605 net.cpp:406] fire9/concat <- fire9/expand1x1
I0427 16:11:03.140981 29605 net.cpp:406] fire9/concat <- fire9/expand3x3
I0427 16:11:03.140988 29605 net.cpp:380] fire9/concat -> fire9/concat
I0427 16:11:03.141034 29605 net.cpp:122] Setting up fire9/concat
I0427 16:11:03.141043 29605 net.cpp:129] Top shape: 256 512 15 15 (29491200)
I0427 16:11:03.141047 29605 net.cpp:137] Memory required for data: 9379627008
I0427 16:11:03.141054 29605 layer_factory.hpp:77] Creating layer drop9
I0427 16:11:03.141062 29605 net.cpp:84] Creating Layer drop9
I0427 16:11:03.141067 29605 net.cpp:406] drop9 <- fire9/concat
I0427 16:11:03.141077 29605 net.cpp:367] drop9 -> fire9/concat (in-place)
I0427 16:11:03.141119 29605 net.cpp:122] Setting up drop9
I0427 16:11:03.141129 29605 net.cpp:129] Top shape: 256 512 15 15 (29491200)
I0427 16:11:03.141132 29605 net.cpp:137] Memory required for data: 9497591808
I0427 16:11:03.141136 29605 layer_factory.hpp:77] Creating layer pool_
I0427 16:11:03.141144 29605 net.cpp:84] Creating Layer pool_
I0427 16:11:03.141149 29605 net.cpp:406] pool_ <- fire9/concat
I0427 16:11:03.141153 29605 net.cpp:380] pool_ -> pool_
I0427 16:11:03.142228 29605 net.cpp:122] Setting up pool_
I0427 16:11:03.142246 29605 net.cpp:129] Top shape: 256 512 1 1 (131072)
I0427 16:11:03.142251 29605 net.cpp:137] Memory required for data: 9498116096
I0427 16:11:03.142256 29605 layer_factory.hpp:77] Creating layer fc
I0427 16:11:03.142266 29605 net.cpp:84] Creating Layer fc
I0427 16:11:03.142271 29605 net.cpp:406] fc <- pool_
I0427 16:11:03.142280 29605 net.cpp:380] fc -> pool10
I0427 16:11:03.190098 29605 net.cpp:122] Setting up fc
I0427 16:11:03.190124 29605 net.cpp:129] Top shape: 256 10575 (2707200)
I0427 16:11:03.190129 29605 net.cpp:137] Memory required for data: 9508944896
I0427 16:11:03.190138 29605 layer_factory.hpp:77] Creating layer pool10_fc_0_split
I0427 16:11:03.190147 29605 net.cpp:84] Creating Layer pool10_fc_0_split
I0427 16:11:03.190152 29605 net.cpp:406] pool10_fc_0_split <- pool10
I0427 16:11:03.190160 29605 net.cpp:380] pool10_fc_0_split -> pool10_fc_0_split_0
I0427 16:11:03.190172 29605 net.cpp:380] pool10_fc_0_split -> pool10_fc_0_split_1
I0427 16:11:03.190179 29605 net.cpp:380] pool10_fc_0_split -> pool10_fc_0_split_2
I0427 16:11:03.190253 29605 net.cpp:122] Setting up pool10_fc_0_split
I0427 16:11:03.190260 29605 net.cpp:129] Top shape: 256 10575 (2707200)
I0427 16:11:03.190266 29605 net.cpp:129] Top shape: 256 10575 (2707200)
I0427 16:11:03.190270 29605 net.cpp:129] Top shape: 256 10575 (2707200)
I0427 16:11:03.190275 29605 net.cpp:137] Memory required for data: 9541431296
I0427 16:11:03.190279 29605 layer_factory.hpp:77] Creating layer loss
I0427 16:11:03.190289 29605 net.cpp:84] Creating Layer loss
I0427 16:11:03.190294 29605 net.cpp:406] loss <- pool10_fc_0_split_0
I0427 16:11:03.190299 29605 net.cpp:406] loss <- label_data_1_split_0
I0427 16:11:03.190310 29605 net.cpp:380] loss -> loss
…
